data/best_tcnn.pth (torch, 92060 bytes, 6 tensors)

conv1.weight f4 [50, 7, 4]
000000 af 10 d9 3d e1 e1 81 bd e8 9a af 3d 8d 1f 15 bd
       0.10598885 -0.06341911 0.08574468 -0.036407042
000010 7a f6 83 3d 5a 5e 01 be 4a ae 49 bd 5c 2b 0b bd
       0.06443496 -0.12633649 -0.04923848 -0.033976898
000020 3b 1f 43 3e 28 57 07 be 52 54 1d bd 8e 69 cd 3d
       0.19054882 -0.13216841 -0.038410492 0.100298986
000030 c6 33 31 3e f1 5b 07 be 45 44 fc bd 5e 83 de 3d
       0.17304906 -0.13218667 -0.12317709 0.108649
000040 fe 61 1f be 20 05 30 be 55 96 e7 3d 11 f4 1c 3e
       -0.15564725 -0.17189455 0.113079704 0.15327479
000050 40 5f 04 be 76 9e 20 be b3 dd fe bd 4a 56 60 bd
       -0.1292696 -0.15685448 -0.124446295 -0.05476979
000060 db 05 21 3e c2 27 0b 3e 75 1d d0 bd 0e d9 bf 3b
       0.1572489 0.13589385 -0.101618685 0.0058547324
000070 3e 93 67 bd c6 65 83 bd 00 fd 25 3d eb 6f bc bb
       -0.056536905 -0.06415896 0.040524483 -0.0057506463
000080 c8 05 af 3d b7 4d 8b bc 08 57 ce bd 2c 38 28 be
       0.085460246 -0.01700483 -0.10075194 -0.16427678
000090 b0 77 8b 3d 11 35 08 3e 69 29 e3 bd 65 55 76 3d
       0.06809938 0.13301493 -0.11091883 0.060140032
0000a0 9d 39 07 3e d7 b9 d0 3d 2c 6c e7 3d 77 7c 70 bd
       0.13205571 0.10191696 0.11299929 -0.05871245
0000b0 9f 64 2f be 92 f0 11 3e 20 28 60 3d d9 bc 8f bd
       -0.17128228 0.14251927 0.054725766 -0.07018442
0000c0 3f fe a3 bb 69 57 9e bd 1b 5d 0e 3e 62 88 a4 bb
       -0.0050046737 -0.07731516 0.13902704 -0.005021141
0000d0 cd 87 7b bd 65 7f 3c bd 0c 6d f0 bd b6 ed 23 3e
       -0.061408807 -0.04601993 -0.11739549 0.16008648
0000e0 1a ec 3d be bf c6 ab 3d 31 1d 0b 3e 53 9b 15 be
       -0.18547097 0.08387517 0.13585354 -0.14610033
0000f0 a4 ea 1e 3e b8 3d 91 3d f1 3b c3 3d 74 ce 34 be
       0.15519196 0.0709185 0.09532917 -0.1765688
000100 99 0a 4f 3d 74 b7 ab 3d dc cd 1f 3e 65 a4 32 be
       0.050547216 0.083846 0.15605873 -0.17445524
000110 cf 88 54 3d ed dc a4 bd e6 ab 83 bc a5 da 04 3c
       0.051888283 -0.08049951 -0.016073178 0.00810877
000120 fe 2e 4c 3c 07 45 03 3d bb ff b3 3b 55 ad 25 be
       0.012462376 0.03204825 0.005493132 -0.16179402
000130 8f a6 24 be 25 e6 a5 3d 56 df 21 3e 7c 46 ca bd
       -0.16079162 0.08100537 0.15807852 -0.09876725
000140 ac 95 3e 3e d1 c7 1f be 3e ed 99 3d c8 fd 15 be
       0.18611783 -0.15603568 0.075159535 -0.14647591
000150 03 c1 06 be 4e bb 0b 3d ea 9f dc 3d c9 dc c8 bd
       -0.13159566 0.034114175 0.10772689 -0.098077364
000160 ab 68 72 3d c6 32 84 bb 4f 93 ce 3d eb 80 10 be
       0.05918185 -0.004034373 0.10086691 -0.14111678
000170 f3 c2 ef 3d 31 ed 63 be 33 a6 c6 3d b4 c1 9b 3d
       0.117071055 -0.2225845 0.09699669 0.07605305
000180 ac 8d c6 bd 84 8c 3f bc 9c 65 70 3b 42 7f 85 3d
       -0.096949905 -0.011691216 0.0036681658 0.06518413
000190 cc bf 70 be 6f 1d dd 3d 0b 51 85 3d 9b 70 1f 3d
       -0.23510665 0.1079663 0.06509598 0.03892575
0001a0 d3 ac d7 3d 81 8a 06 be 1e 1a e1 bc cc 9d 16 b9
       0.105310105 -0.13138773 -0.027478274 -0.00014363899
0001b0 66 9c 21 3e 52 6a 1e be 35 ad a5 bc 83 3d cd bc
       0.15782318 -0.15470245 -0.020224193 -0.025053745
0001c0 76 c3 b1 3d 89 c4 8f 3c b6 30 0f 3e de 0e 86 3d
       0.08679859 0.01754977 0.13983425 0.065458044
0001d0 86 c3 3d 3d 79 a1 43 3d 2b 9e 1a be 16 c9 61 bd
       0.046329044 0.047761414 -0.15099399 -0.05512341
0001e0 a2 65 11 bd c3 78 21 be d3 7c 78 bc d4 36 6e bd
       -0.035497315 -0.15768723 -0.015166479 -0.058157757
0001f0 41 f4 c0 3d e6 82 10 bd 96 75 95 3d 2e ac 70 bd
       0.09421588 -0.035281084 0.07297818 -0.058757953
000200 e8 92 81 3d 04 ab cb bc 10 b6 74 3d e6 bf 88 3d
       0.06326848 -0.02486182 0.05974394 0.06677227
000210 c8 58 4b 3e 25 42 45 3c de 93 12 3e 20 6f d2 bc
       0.19858086 0.012039696 0.1431422 -0.025687754
000220 5e bc 81 be 80 f2 50 bd 74 b8 f7 3d d2 bc 3d be
       -0.25339025 -0.051012516 0.120957285 -0.1852906
000230 76 b3 4b bb 6b 10 2b 3e 37 93 18 3e f9 e9 95 3c
       -0.003108231 0.16705482 0.14899908 0.018300043
000240 6b 09 e9 3a 79 0a 21 be 46 89 1b 3b 68 52 ef bd
       0.0017779296 -0.15726651 0.0023732944 -0.116856396
000250 23 e4 a5 3d bd 3d ea bc 0e b8 03 3e ce 56 84 bd
       0.08100154 -0.028593892 0.1286318 -0.06461869
000260 4c 5b 81 bc c5 21 2d be d3 83 1a 3d d9 d6 f4 3d
       -0.015790604 -0.16907413 0.037723374 0.119550414
000270 70 42 10 3d 22 2e 09 bd 75 37 48 bd 19 6a b7 3d
       0.03521961 -0.03349126 -0.048881013 0.089557834
000280 d1 a0 45 3e 73 84 3f be 46 b3 03 3e ed 8e 27 3e
       0.19299628 -0.18702869 0.12861356 0.16363116
000290 a6 86 d0 3c 13 19 c8 3d 54 45 b1 3d 7a b5 24 be
       0.02545483 0.097704075 0.086558014 -0.16084853
0002a0 6d cc fe 3d 77 16 02 3e 74 76 30 3e 43 20 1a be
       0.12441335 0.12703882 0.17232686 -0.1505137
0002b0 9c 2c 80 3c 24 6e f3 bc 0b 25 1d be f3 9d a6 bd
       0.015646271 -0.029715605 -0.15346162 -0.08135595
0002c0 4b ba 66 bd fc 3c 55 bd 73 15 f6 bc 75 9e f6 3c
       -0.056330007 -0.052060112 -0.030039525 0.030104855
0002d0 f4 b1 0b be 41 ef db bd 97 94 de bd e0 ce 0e 3e
       -0.13642102 -0.107389934 -0.10868185 0.13946104
0002e0 e2 97 92 bc 49 1d d3 bd 96 93 cf 3a b2 73 ff bd
       -0.017894689 -0.1030832 0.0015836831 -0.12473239
0002f0 8d f9 a2 3c 89 80 10 3e 0e 5e e8 bd cc b4 f1 3d
       0.019894386 0.14111532 -0.113460645 0.118020624
000300 89 32 6c bd 86 7e e7 bd 46 f5 b5 bd f1 e2 aa bb
       -0.05766538 -0.11303429 -0.08884673 -0.005215042
000310 71 e5 18 3e 00 6c 34 be e0 36 1d bd 00 54 96 3d
       0.14931275 -0.17619324 -0.03838241 0.073402405
000320 b3 4f c7 3b 52 cc ab bc bb a2 1f 3c 10 4a 2a 3e
       0.006082499 -0.020971451 0.009743388 0.16629815
000330 d8 a4 1e be c5 7a dc bd 2f f8 8e bd 9b 6c 8f bd
       -0.1549257 -0.10765604 -0.06980931 -0.07003137
000340 d7 b7 26 3e 96 64 85 3d d0 af 19 be 37 d9 a1 bc
       0.16281067 0.06513326 -0.15008473 -0.019756896
000350 52 5c ad 3d 75 0d 0d 3e 66 c6 2e bc 7d 64 2f be
       0.08464874 0.13774665 -0.010667419 -0.17128177
000360 81 c7 a4 bd d0 66 ef bd 93 70 31 bd ef ce 27 3e
       -0.08045865 -0.11689532 -0.04332025 0.16387533
000370 19 8f 1f bd dd 5b 63 bd 42 fc 1d be ad 0f fe 3d
       -0.038954828 -0.05550753 -0.1542826 0.12405334
000380 aa fb 64 bd f7 f7 71 3d 79 a9 06 be 9f 8e f7 bd
       -0.055904068 0.05907437 -0.13150586 -0.1208775
000390 40 cf ee bc 84 91 19 3c 4b 4a 11 3d 9e 80 89 3d
       -0.029151559 0.009373073 0.035471242 0.06713985
0003a0 8c b1 a1 3d 06 47 90 bd 8e ab 0c be 27 cf d8 bd
       0.078951925 -0.07044797 -0.13737318 -0.10586386
0003b0 04 e1 0f 3e 22 d1 cf 3d b1 ad 95 bd fd f6 15 3e
       0.1405068 0.10147311 -0.0730852 0.14645
0003c0 b4 a3 2b 3d 29 02 c8 3d c9 bb f7 3c 55 ae 2a 3e
       0.041904166 0.09766037 0.03024091 0.16668065
0003d0 cb f1 72 3d 4e 6b f9 3d bf d0 0d 3e 45 a2 72 3d
       0.059312623 0.1217867 0.13849162 0.059236784
0003e0 4e bc 61 be 6b da a8 bd bf 30 da 3c 0b e6 c4 b9
       -0.22044489 -0.08244785 0.026634572 -0.0003755543
0003f0 11 44 93 3d fb c5 0d be 2c 5a 18 be 2e 68 4c 3e
       0.07190717 -0.13845055 -0.14878148 0.19961616

conv1.bias f4 [50]
000000 4e 50 ee bd 83 5a 76 3b a1 e6 ff 3d 97 02 d0 bd
       -0.11636411 0.003759057 0.12495161 -0.10156744
000010 9f ce 1a be 6f f2 8a bd 4b 06 55 be f7 f6 82 3d
       -0.15117882 -0.06784522 -0.20803182 0.06394761
000020 54 bd 9c bd 58 d6 f1 bc b0 f7 e3 bc 80 f2 db bd
       -0.07653299 -0.029521152 -0.027828068 -0.107396126
000030 30 92 42 be 58 2a af bc 69 94 8c bc 65 20 b4 3d
       -0.19001079 -0.021382496 -0.017160611 0.08795241
000040 bb 18 a7 3d a7 67 cb ba c4 ed 42 bd c1 78 f9 bd
       0.08159014 -0.0015518562 -0.047590032 -0.12181235
000050 e2 8a f3 bc 81 2e 19 bd 3b e9 af bd 77 f6 0a be
       -0.02972931 -0.037397865 -0.08589407 -0.13570581
000060 79 a7 91 bd ef 54 95 bd d4 d3 52 bd 04 d0 24 be
       -0.07112021 -0.072915904 -0.051471546 -0.16094977
000070 7f 10 c1 bc 98 92 fa 3d e7 92 b2 3d cf 81 1b be
       -0.023567436 0.12234992 0.08719426 -0.15186237
000080 be 9e 0f 3e bc 77 fa 3c b9 21 cd 3d 1e a4 13 bd
       0.14025399 0.030574672 0.10016198 -0.036045186
000090 2d 6f ac bd f7 64 a2 bc 73 cd 86 3c 8d 22 e5 3d
       -0.084196426 -0.019823534 0.016455388 0.11188231
0000a0 dc 50 fa bd 22 a6 05 3e 48 ec 18 be 4b e1 d8 3d
       -0.12222454 0.13051656 -0.14933884 0.10589846
0000b0 bd 17 0b be 5c d7 2e 3d 87 9f 9d bd 7e 9e e0 3d
       -0.13583274 0.04268585 -0.07696443 0.1096773
0000c0 ea 22 21 be df 38 14 3e
       -0.15735975 0.1447482

conv2.weight f4 [100, 50, 4]
000000 db 5b 9d bc 36 21 48 bc 77 3c 06 bb 74 35 7c 3d
       -0.01920884 -0.012214949 -0.0020482817 0.061574414
000010 fb 0c 5f bd 28 d1 23 3d 7a 9b 34 3d 95 ff c0 bc
       -0.05445574 0.03999439 0.044093587 -0.023559371
000020 85 a5 03 3b 1c ad b1 3c 04 86 41 bc 6b 07 47 3a
       0.002008767 0.02168899 -0.011811737 0.0007592353
000030 fb 6c 96 3c 60 6d c5 3a 9c ce bf bc 22 94 2d bd
       0.018362513 0.0015062504 -0.023413949 -0.0423776
000040 cb ac 7e 3c 04 f3 7c bd 23 44 4a bd 59 81 da bc
       0.015544127 -0.061755195 -0.049381386 -0.026673006
000050 c9 27 99 bd 63 53 02 3d 4c d5 f1 3c 54 60 12 bc
       -0.074782915 0.031817805 0.029520653 -0.008934099
000060 d9 b4 0f 3c 3e 5b bd 3b b7 ad 8e bd 35 94 94 bc
       0.008771145 0.005778699 -0.06966727 -0.018137077
000070 30 a3 03 3c 1d bc fb ba ab c7 86 3d ab 71 f2 bc
       0.008034512 -0.0019205842 0.065810524 -0.029595217
000080 1a 6c a0 3d 4f 46 21 3c 9b c7 77 bd 36 2b 97 bd
       0.07833119 0.009843423 -0.060493093 -0.07381289
000090 3b 3d 13 bd ea 86 62 bd 76 13 57 bd 39 f9 14 3d
       -0.035947066 -0.055304445 -0.052508794 0.03637049
0000a0 2f b4 82 3d 4f f2 3d 3d 21 8f eb 3b 49 14 aa 39
       0.063820235 0.04637366 0.007188693 0.0003244004
0000b0 69 35 98 3d b4 7c b8 bc 99 5e 1f bd b4 e8 03 3d
       0.07432062 -0.0225204 -0.038908575 0.032204345
0000c0 d2 3e 40 bd 4d 58 5d bd e9 c3 4d bc b9 17 1f 3c
       -0.04693491 -0.05403929 -0.012558916 0.009710246
0000d0 72 e6 18 3d ea c6 ca ba 79 e4 fb bc 1f 2b 1e 3d
       0.037329145 -0.0015470658 -0.030748593 0.038615342
0000e0 9a f7 38 3d 69 de 0b bd 07 68 9c bd 74 3a 16 bc
       0.045158006 -0.034147654 -0.07637029 -0.00916921
0000f0 a2 f0 86 3d af 70 83 b8 69 9b 8b bd f1 ac 0a 3d
       0.06588866 -6.267556e-05 -0.068167515 0.033856336
000100 a2 8a 86 bd aa 76 d7 bc 02 3b 69 bd 8f 80 66 3d
       -0.06569411 -0.0263017 -0.05694104 0.056274947
000110 c8 3b 38 3d b1 44 02 3d b4 e8 36 3c 88 43 bb bc
       0.044978887 0.03180379 0.011163879 -0.02285935
000120 28 24 5c bd a7 d9 73 3b 54 fd aa 3b c1 09 85 3b
       -0.05374542 0.0037208588 0.0052181873 0.0040600006
000130 15 57 92 bb 96 81 71 3d 41 34 3f 3d b8 16 02 3d
       -0.0044659474 0.058961473 0.046680693 0.031759948
000140 8e c2 31 3d 1d 10 bc 3b 6f 74 1e 3c 45 f5 1a bc
       0.043398432 0.0057392255 0.009671315 -0.009457891
000150 d6 f5 52 3d 25 b9 60 3c 9f be 41 3d 03 fa e4 bc
       0.05150398 0.013716017 0.04730093 -0.027951246
000160 c5 74 04 bd 24 d0 73 bc 94 a4 6e bc b8 0f aa bd
       -0.032337923 -0.014881168 -0.014565606 -0.08303779
000170 b7 2c c4 bc ea 1b c4 bc e9 04 7f 3d 5d 4e 9c bc
       -0.023947103 -0.023939092 0.062260542 -0.019080335
000180 73 90 6c bc 18 e3 a4 3c 99 ad f3 bc f7 fa 7b bd
       -0.014438736 0.020127818 -0.029745864 -0.061518636
000190 40 21 32 bd c6 74 55 3c 0e 29 88 bd 42 43 bc 3c
       -0.04348874 0.013028329 -0.066484556 0.02298129
0001a0 e7 a3 0f bd 3e c7 6a bb 6f 5e 9d bd 84 c5 fd 3a
       -0.03506842 -0.0035824324 -0.076840274 0.0019361232
0001b0 81 46 ea bc 69 8b 6a bd 4e 81 2c 3a 85 d8 9f bb
       -0.028598072 -0.057261858 0.0006580547 -0.004878106
0001c0 41 13 08 bd 80 97 b3 bd 23 b3 b5 3b 26 3b f0 bc
       -0.033221487 -0.08769131 0.0055450364 -0.02932508
0001d0 01 69 62 3d 1a e4 6b 3c f7 a7 37 bd 70 27 83 3c
       0.05527592 0.014397645 -0.044837918 0.016010016
0001e0 f9 d8 77 bd 2b 7c 39 bd f4 29 19 3d 74 28 b3 3c
       -0.060509656 -0.04528443 0.037393525 0.021869875
0001f0 ee ad 3f bd 91 3b 28 3d d2 cd 48 3c 61 80 25 3c
       -0.04679673 0.041072432 0.012256103 0.010101409
000200 0e 0e b9 3c 74 53 38 bd ee f7 23 3d 55 ac c2 3c
       0.02258971 -0.045001462 0.040031366 0.023763815
000210 25 8d c8 ba a9 fc 6a 3c c5 90 87 3d 23 a2 98 bd
       -0.0015300853 0.014342465 0.066194095 -0.074528
000220 62 e6 a4 3c 08 f7 c9 bc b0 45 ce bc fc 65 1c 3d
       0.020129386 -0.024653926 -0.025179714 0.038183197
000230 f5 1f 8e bc c4 1b 9f 3b 23 de 2f bd d0 bb e7 bb
       -0.017349223 0.004855605 -0.042936455 -0.0070719495
000240 da 56 21 bd e6 5d c1 bb 89 d8 58 bd 1f f6 54 3c
       -0.03938947 -0.005901086 -0.05294088 0.012998133
000250 71 21 0f 3d 82 b8 58 bd 51 9c 35 3c fb ad 21 bc
       0.034944 -0.052910335 0.011084632 -0.00986814
000260 e8 6e 89 bd dd 2d 70 bd d6 bb 8b bd 4d 04 63 ba
       -0.06710607 -0.05863749 -0.06822936 -0.00086600037
000270 50 fd f9 3c ff ad 90 3c 00 17 5d bd 09 46 1a 3d
       0.030516297 0.017661093 -0.053977013 0.037664447
000280 5a 9d d6 bc 37 01 f6 3c f9 84 c5 3c 43 7b 3e bd
       -0.026198078 0.030029876 0.024111258 -0.04650427
000290 6a f3 b5 bc 42 ef bc 3c eb 52 92 3c 89 2c 93 3c
       -0.022210795 0.023063306 0.017861804 0.017965572
0002a0 49 ce 69 3d 83 3f 49 3c a4 f3 30 3d cb 15 cc bc
       0.057081494 0.012283209 0.043201104 -0.024912735
0002b0 09 41 86 bd c5 49 7d 3d 26 1a d9 bc 41 8c 49 bd
       -0.06555373 0.06183793 -0.026501726 -0.049206022
0002c0 f0 ef 2b bd 8c 94 3c 3d 81 dc 79 3d eb f2 a7 bd
       -0.04197687 0.046040103 0.061001305 -0.0820063
0002d0 54 41 74 3d f6 d8 5f bc b4 b7 07 3d 73 11 93 3d
       0.059632614 -0.013662567 0.033134177 0.071810625
0002e0 c1 a2 9c bc 66 73 1a 3d be 32 f9 bc 7d 57 c9 bd
       -0.019120576 0.03770771 -0.030419704 -0.0983114
0002f0 95 a0 11 bd 7c 5e a8 bc 61 07 31 3d 32 fc 7c bd
       -0.035553534 -0.020552866 0.043219928 -0.06176395
000300 3a 77 11 3d 4c 75 ea bc 58 c2 58 bd 45 4b 82 bc
       0.035514094 -0.028620385 -0.052919716 -0.015905032
000310 24 0b 0b 3c f6 3e 47 3d df b3 c5 bc fe ac d3 3c
       0.008486543 0.04864403 -0.02413362 0.025839325
000320 3b 58 02 3d 78 76 60 3d 26 0b b0 3c d3 44 20 3d
       0.031822424 0.05480048 0.021489691 0.039128136
000330 fb ec 24 bc 69 27 0e 3c 59 90 f1 3a 61 f5 5b bd
       -0.010066266 0.008676388 0.001842986 -0.05370081
000340 a1 a7 6c 3d e8 67 f1 3c a1 00 68 3d 40 97 69 bd
       0.05777705 0.029468492 0.056641225 -0.05702901
000350 a5 39 76 bd ce 7d dc bb 0c 51 f2 3c 13 d2 88 3d
       -0.060113568 -0.0067288643 0.029579662 0.066806935
000360 31 25 72 bc b3 c2 a0 bd c1 87 56 bd 70 d1 c7 bc
       -0.014779375 -0.07849636 -0.05237556 -0.02439186
000370 7f 69 07 bd 4b 2e 74 bd eb 15 6c 3b be 32 92 bc
       -0.033059593 -0.05961446 0.0036023806 -0.017846461
000380 be 2f 1d bd b1 43 c2 b9 17 f1 7a bd 80 e9 14 3d
       -0.03837561 -0.00037052998 -0.061265077 0.036355495
000390 6d df 2f bd 2a 6c 5c bd 78 1c 0f bd 4b 09 e9 ba
       -0.042937685 -0.05381409 -0.03493926 -0.0017779259
0003a0 9d 84 9d bc b7 d6 1c 3d 3c cd 8f bd 74 14 42 3d
       -0.019228274 0.038290706 -0.07021567 0.047382787
0003b0 80 fc 83 bc 8e 89 9e 3d 28 90 94 3d 46 b8 b6 3d
       -0.016111612 0.0774108 0.07254058 0.08921866
0003c0 f9 57 0b bd 83 e4 94 3d 3b 3b 2b 3d 64 1c 08 bd
       -0.034019444 0.07270148 0.041804533 -0.0332302
0003d0 64 2d 86 bc 17 19 81 3d e9 5e ba 3c e6 ea 9d bc
       -0.016379066 0.06303614 0.022750335 -0.019277047
0003e0 35 34 28 ba a4 b3 8a 3d 2e c7 77 bc f1 4b a6 bd
       -0.0006416471 0.06772545 -0.015123172 -0.081199534
0003f0 71 96 93 bd 8f 65 1b bd a2 76 46 bb 49 2a a6 3c
       -0.07206429 -0.03793865 -0.0030283113 0.020283835

conv2.bias f4 [100]
000000 94 b0 ac bd 4b 9e 50 3d 51 48 a9 3d b3 1b 1f bd
       -0.08432117 0.05093221 0.082657464 -0.038844775
000010 dd 81 39 3d 65 d6 68 bd 0b 5f 38 bc 4b 46 fd 3c
       0.045289863 -0.056845088 -0.011253129 0.030917307
000020 2e 47 34 bd 76 48 73 bc 19 ba 0f 3d 04 67 98 bd
       -0.044013195 -0.014848819 0.035089586 -0.07441524
000030 48 67 0a bd e1 74 40 bd b8 95 5c 3d 09 39 ba bd
       -0.033789903 -0.046986464 0.05385372 -0.0909291
000040 d9 05 b1 3c 32 bc c5 3c f1 43 4c bc e6 b7 92 bd
       0.021609234 0.02413759 -0.01246737 -0.07163982
000050 08 52 5b 3d e0 41 67 3d 54 a5 57 bd 68 15 63 b9
       0.053545028 0.056459308 -0.052647904 -0.00021656381
000060 bb 25 e8 bc c1 ea 8b 3d e9 9d bb bd 6c 16 28 3c
       -0.028338304 0.06831885 -0.09160978 0.010259252
000070 24 48 40 3d 0a 1e d2 bc e1 fa 60 bd e9 44 30 3d
       0.0469438 -0.02564909 -0.054926757 0.043034468
000080 38 3c 52 3c 93 ce b1 3b 87 5d d1 3c ce 17 71 bd
       0.01283174 0.005426237 0.025557293 -0.058860593
000090 ee 3c ed bc 50 91 ab bd f2 ec 43 3d e8 39 9e 3d
       -0.028959718 -0.083773255 0.04783339 0.077258885
0000a0 31 34 95 bc 85 4a 1b 3d 32 b5 bf 3c 53 a7 95 bc
       -0.018213363 0.037912864 0.02340183 -0.018268263
0000b0 c3 3d 72 bd 9b 3a 32 bd eb 8a c7 3c fe 3a 5a bd
       -0.05914093 -0.04351292 0.024358233 -0.053278916
0000c0 1d e8 bd 3d 54 8a ab 3c 14 01 76 bc 07 dc d1 bc
       0.09272788 0.020939983 -0.0150149055 -0.025617613
0000d0 07 4b ba 3c 7d da 88 3c 25 b6 e5 3b cd 38 a6 bc
       0.022740854 0.016705746 0.0070102387 -0.020290757
0000e0 2d 8f a5 bc 65 4b 48 bd bd 89 55 3d 4f 46 c6 bd
       -0.020209873 -0.048900027 0.05213331 -0.09681379
0000f0 9c 50 1f 3d 79 f2 46 bd d7 d5 31 3d 5d 87 37 bd
       0.038895234 -0.048571084 0.043416824 -0.044806827
000100 76 a0 d2 3c 1b fa bf bd 1c d7 1f bd 92 b8 56 bd
       0.02571128 -0.09373876 -0.039023504 -0.052422114
000110 76 38 a9 bd 02 c0 84 bc dc 12 39 3d 87 39 14 bd
       -0.08262722 -0.016204838 0.045184 -0.036187675
000120 8c 34 28 3d 0a ce 0b bc ac de 9d 3c a1 75 76 3d
       0.041065738 -0.00853301 0.019271217 0.060170773
000130 f4 3c 2d bc 45 4d 9f bd 58 3e 20 3c e9 80 ca bc
       -0.010573614 -0.0777841 0.009780489 -0.024719672
000140 34 40 c0 3c fb bd 42 bd 27 cf 53 3d 81 c3 99 3c
       0.023468114 -0.04754446 0.051711228 0.018769981
000150 4b 62 ba bc b2 f3 42 3d fe b9 18 bd 21 c7 aa 3c
       -0.022751948 0.047595687 -0.03728675 0.020846905
000160 b2 57 8b bd 96 2c 4d bd 05 69 74 bd ca c6 2e bd
       -0.06803836 -0.05009135 -0.059670467 -0.04267005
000170 08 1f c7 bc 9c 24 ff bb 4e 2a 7b 3d 1f a5 94 3c
       -0.024306789 -0.0077863466 0.06131964 0.018145142
000180 c6 da 77 3d 46 01 4d 3c 61 7d 7b bc ea 63 08 3d
       0.060511373 0.012512511 -0.015349717 0.03329841

fc.weight f4 [2, 400]
000000 65 04 10 bd 33 df 54 3c a6 0b 09 3d c9 70 22 3c
       -0.03516044 0.012992668 0.033458374 0.009914585
000010 1a e8 00 bd 8b 04 b4 3c af 01 af bb 78 6c 31 3d
       -0.03147135 0.021974823 -0.005340777 0.043316334
000020 22 65 33 3c e3 82 3f bc 08 f3 1f 3d ad da b3 3c
       0.010949405 -0.011688921 0.039050132 0.021954859
000030 04 28 45 3c 72 c6 57 bb 69 df 30 bd 55 61 32 bd
       0.012033466 -0.003292468 -0.04318181 -0.043549854
000040 69 55 da 3c 53 4a cf 3c b7 fe 3a 3d 17 f8 5b bc
       0.026652055 0.025303995 0.04565307 -0.013425848
000050 eb 5d e8 ba 64 99 3a 3d a0 3f 0e 3d bf 3d d4 bb
       -0.0017728185 0.04555644 0.034728646 -0.0064770873
000060 d0 b9 fd 3c 29 d8 29 3c 5c e8 88 bc e9 a1 8c bc
       0.030972391 0.010366478 -0.01671236 -0.017167049
000070 0e e0 d5 bc d9 1e 98 bc 6c f8 79 bc c3 9d 82 bd
       -0.026107814 -0.018569397 -0.015256982 -0.06377747
000080 37 ae bf 3c e7 bb 31 3b a4 b6 11 3b 95 b0 21 3d
       0.023398502 0.0027120055 0.0022234106 0.039475042
000090 9d ea 17 bd d4 ab 45 bb 1a f9 5b 3b fe 68 ad 3c
       -0.03708898 -0.0030162232 0.0033565224 0.021168228
0000a0 42 28 f7 bc 33 a6 e0 3b 96 b8 c9 3b 36 bf e0 bb
       -0.030170564 0.00685575 0.0061560376 -0.0068587316
0000b0 a2 35 1f bd 2b b2 3a 3d 73 6e 89 bc b4 3a fa bc
       -0.038869508 0.04558007 -0.0167763 -0.03054557
0000c0 bf b7 7c bc c2 27 0a 3d f5 c2 92 bc 65 e4 66 bd
       -0.015424668 0.033729322 -0.017915228 -0.056370158
0000d0 31 50 ec 3b d0 e5 d4 3b fb 2c 27 bd f8 20 b1 bc
       0.007211708 0.0064971223 -0.04081438 -0.021622166
0000e0 35 83 c5 bb de 90 10 bd 76 8f d8 bc 2c 39 a5 bc
       -0.006027604 -0.035294406 -0.026435595 -0.020168863
0000f0 09 57 44 bd cb 9e b0 bc 41 de 14 3d 77 c3 10 bd
       -0.047934566 -0.021560093 0.03634477 -0.03534266
000100 9b f3 93 bc 56 d2 c3 bc f1 08 39 3d 80 b4 54 bb
       -0.018060496 -0.023904007 0.045174543 -0.003245622
000110 a9 eb 03 bd ca d4 1e 3d e6 83 10 3d 4a 45 0d bd
       -0.032207165 0.03877715 0.03528204 -0.034489907
000120 d2 3e f9 3b d0 9c 04 3d b0 8e c9 bc 4b 42 26 bd
       0.0076063657 0.03237611 -0.024604172 -0.040590566
000130 4b 11 6f bc e9 98 36 3c c6 54 ba bc ba 4f b9 bc
       -0.014591525 0.011144855 -0.022745501 -0.022621024
000140 b4 33 b1 3c eb 76 e5 bc f9 e6 44 3c 12 93 02 3d
       0.0216311 -0.028010806 0.012017959 0.03187854
000150 ff 6a eb 3c 90 4f 07 3d a0 3a a1 3c 23 81 23 bc
       0.028737543 0.03303486 0.019681275 -0.009979519
000160 ec f8 d1 3c 5a 51 2f 3d 06 ae a9 bc f0 a9 2d bd
       0.02563139 0.042802192 -0.020712864 -0.042398393
000170 28 eb f5 3b e5 ea 42 3d 16 90 b9 bc dc 5e 90 3c
       0.0075048395 0.047587294 -0.022651713 0.017623357
000180 f6 56 39 3c 3e 96 98 3c 77 ab 83 bc e4 a8 20 3d
       0.011312237 0.018626329 -0.016072972 0.039223567
000190 cb 97 0b 3d 04 5d d8 3c 44 1f d8 3c f5 51 e7 bb
       0.034080308 0.02641154 0.026382096 -0.0070593306
0001a0 88 2d 22 3d 9a bf b3 3c e4 76 8a bc 56 57 b1 bc
       0.039594203 0.021941949 -0.016902395 -0.02164809
0001b0 d4 3f f8 3c 0b 4e 8f bb 08 4b cf 3c 22 af 5b 3d
       0.030303873 -0.004373317 0.025304332 0.053633817
0001c0 ad 5f e1 3a 47 93 71 bc 81 c4 d2 3c d1 74 1f 3c
       0.0017194651 -0.014744586 0.025728466 0.009732441
0001d0 0a 8d df bc a6 0b 45 bc c6 39 04 3d c8 1d 31 bd
       -0.027288932 -0.012026703 0.03228166 -0.043241292
0001e0 f0 30 ee bc 72 e1 c0 bb d6 42 07 bd 24 60 94 3c
       -0.02907607 -0.00588625 -0.033022724 0.01811225
0001f0 cc 86 2d bd d2 85 0f 3d 5c f9 91 bc 59 d9 b7 bc
       -0.04236488 0.03503973 -0.0178191 -0.022442507
000200 33 bc 9f bc 94 e0 22 bd bc d6 18 bb 93 85 fe bc
       -0.01949892 -0.039764956 -0.002332135 -0.031069553
000210 38 1b e9 bb 8b c3 8a bc 5a e9 81 3d 67 61 06 3d
       -0.0071138404 -0.016938945 0.063433364 0.032807734
000220 82 c6 d5 bc 2c 2b e2 bc 30 1e 8a 3c 63 7f b6 3c
       -0.026095632 -0.027608477 0.016860098 0.02227754
000230 15 a6 dd 3b ec 57 d6 bc 8f 69 1b bc 9c c6 3b bd
       0.0067641833 -0.026164971 -0.009485616 -0.045843706
000240 42 fe e3 3b dc 82 92 3c 30 ef 09 3d d8 ec f8 3c
       0.0069578 0.017884664 0.033675373 0.030386373
000250 df 2e d6 bc a7 dc e2 39 d4 a2 60 bc c1 71 41 bd
       -0.026145397 0.00043270478 -0.013710696 -0.047227625
000260 9b 4d 42 bd ac 2f bc bc ba 99 2b bd 9e cb 05 bd
       -0.04743729 -0.02297195 -0.041894652 -0.032664888
000270 b9 02 af 3c 15 69 30 bc c9 24 67 3d 03 e1 ff 3c
       0.021363603 -0.010767241 0.056431565 0.031235224
000280 93 2d 7a bc 01 ca eb 3b 5a 81 24 bd 0d 46 b9 3b
       -0.015269655 0.0071957116 -0.04016242 0.0056541027
000290 53 9c e1 bb 3a e8 7f bc 2d ab 84 bc 20 a7 3c bd
       -0.0068850904 -0.015619332 -0.016194904 -0.04605782
0002a0 47 41 2e bd e2 54 62 3c 59 c1 2a bd f7 2c 08 3c
       -0.042542722 0.013814183 -0.041688297 0.008311502
0002b0 f7 b3 61 3c 5b 68 e0 3c c5 84 09 3b 98 1c 16 bd
       0.013775817 0.02739351 0.0020983678 -0.036648363
0002c0 27 f2 08 bd 32 7e 19 bd 87 72 25 bc 21 a6 72 3d
       -0.03343406 -0.037473865 -0.010098106 0.059240464
0002d0 2b c7 04 3d e0 3b d7 bc 22 53 3f 3a 04 00 50 3d
       0.032416504 -0.026273668 0.00072984595 0.050781265
0002e0 62 f1 c1 bb d9 f1 84 bb 77 35 e2 bc 9f fa bb bb
       -0.0059186677 -0.004057151 -0.027613385 -0.0057366635
0002f0 6d e4 0e bd b3 75 e8 3c 88 22 a7 bc 40 33 ab 3c
       -0.034885813 0.028376436 -0.020402208 0.020898461
000300 cc a3 5f 3d 67 4e 42 bc c7 42 35 3d 3e 4a d5 3c
       0.05459957 -0.011859513 0.044253137 0.026036378
000310 2c f9 56 3c 68 b7 42 3d 21 33 f8 3c 32 76 84 bc
       0.013120931 0.04753819 0.030297818 -0.016169641
000320 aa b1 9f bc 66 d4 09 bd ae 1e 21 3c b8 95 6b bc
       -0.019493897 -0.033649825 0.009833975 -0.014378957
000330 64 cb 2c 3d b3 b2 7c 3a 50 0b ce 3c 7e cd d3 3b
       0.042186156 0.00096396654 0.025151879 0.0064637056
000340 e7 cb e5 3b 79 8c d8 3b 29 2b 2c 3d 80 66 e6 3b
       0.0070128324 0.0066085425 0.04203335 0.007031262
000350 cf 89 c7 bc 26 8b c1 3b 92 57 22 3d ff 9d 2f bc
       -0.024357704 0.0059064804 0.039634295 -0.010718822
000360 68 a5 79 bc c4 b4 3f bc 88 5e 22 bd 5a 8b 04 3d
       -0.01523719 -0.011700813 -0.039640933 0.03235946
000370 b0 65 d2 bc 83 4c 28 3d e1 e0 e4 3c 17 75 7b bc
       -0.025683254 0.041088592 0.027939262 -0.015347741
000380 52 18 31 3c 2f ad 41 3c 7d 9b c9 3c c9 5f 83 3c
       0.010809021 0.011821075 0.024610275 0.016036885
000390 45 1f d9 bb 52 bb d9 bc 0a 00 9b bb 06 78 9c ba
       -0.006626042 -0.02657858 -0.0047302293 -0.0011937625
0003a0 b6 20 2c 3c 71 c8 bf 3c c4 e3 25 bb c4 41 84 3d
       0.010505846 0.023411008 -0.002531276 0.06457856
0003b0 6a f2 d4 3c ae 4a 95 3c 1f b2 d3 3c 2b 7b 3b bc
       0.025994498 0.018224087 0.02584177 -0.01144294
0003c0 8d 2c 96 3c c9 8c 20 3b f4 0c 6c 3c 81 96 46 3d
       0.01833179 0.0024497977 0.014407385 0.048483375
0003d0 60 81 9c 39 db bb 83 ba 40 80 3d bd ec 5a 93 bc
       0.0002985103 -0.0010050492 -0.046264887 -0.01798769
0003e0 18 65 77 bc bd 17 a9 3b d4 2c 2d 3d 07 a1 71 3d
       -0.015099786 0.0051603005 0.04227908 0.05899146
0003f0 28 50 d2 3c 8c 1d 8c bb 0d 2c d9 bc ed 64 75 bd
       0.025672987 -0.004275983 -0.026510263 -0.059910703

fc.bias f4 [2]
000000 c3 50 ea 3c e9 b4 33 bd
       0.028602963 -0.0438737
