data/best_tcnn.pth (torch, 5724 bytes, 6 tensors)

conv1.weight f4 [8, 7, 3]
0	0x3d31d8b0	0.04341954
1	0xbdc4b75b	-0.09605285
2	0xbe2a7fa6	-0.16650257
3	0x3e1a5f47	0.15075408
4	0xbda5a926	-0.08088903
5	0xbbac90a8	-0.005266268
6	0xbddf4c8c	-0.10903272
7	0x3e277bed	0.16355868
8	0x3e4625c6	0.19350347
9	0x3e5629a6	0.20914325
10	0x3e1a3a2b	0.15061252
11	0x3e37dc56	0.17955145
12	0xbe37ba3b	-0.17942135
13	0x3cad4ad0	0.021153837
14	0x3e0d447a	0.13795653
15	0x3e2118bb	0.1573209
16	0x3e47c16f	0.19507383
17	0x3c09cfa2	0.00841132
18	0xbe723d7e	-0.2365627
19	0x3e2174e0	0.1576724
20	0xbe8156b9	-0.25261477
21	0x3dd06249	0.101749964
22	0x3e122f55	0.14275868
23	0xbce005f8	-0.027346596
24	0x3e1e1a20	0.15439653
25	0x3df85b2b	0.12126764
26	0x3e163b8c	0.14671153
27	0xbe78aea7	-0.24285375
28	0xbd992097	-0.07476919
29	0xbe6baeeb	-0.23015945
30	0x3dd036d6	0.10166709
31	0xbdc2bf13	-0.09509101
32	0xbe74eb22	-0.23917821
33	0xbe4d0794	-0.20022422
34	0xbda92018	-0.082580745
35	0x3e0be16c	0.1366021
36	0x3da2341e	0.07920097
37	0xbe9368b0	-0.28790808
38	0xbe689842	-0.22714332
39	0x3d435657	0.047689762
40	0xbdd19f58	-0.102354705
41	0x3e00ecbd	0.12590308
42	0xbe18257f	-0.14858054
43	0x3da24a21	0.07924295
44	0x3d9a854e	0.07544957
45	0x3da4d730	0.08048856
46	0xbe556d2e	-0.2084243
47	0x3dad60c7	0.084657244
48	0x3e1bfe50	0.15233731
49	0x3db2006a	0.08691485
50	0x3d5b7aad	0.05358379
51	0x3e1b6497	0.1517509
52	0xbe41cdf5	-0.18926223
53	0xbd338139	-0.04382441
54	0xbe501aec	-0.2032277
55	0xbd919ef3	-0.07110395
56	0xbe0c8046	-0.13720807
57	0xbe64cf14	-0.22344619
58	0xbe1c0df1	-0.15239693
59	0xbd9f92bd	-0.0779166
60	0xbddd8253	-0.10815873
61	0xbca03600	-0.019557
62	0x3c626f01	0.013820411
63	0xbe37e430	-0.1795814
64	0xbda57e71	-0.080807574
65	0x3d53ed01	0.051739696
66	0xbe45b8b4	-0.1930874
67	0x3cf5c743	0.030002242
68	0x3d28ed04	0.04124166
69	0xbd0aa935	-0.033852775
70	0x3e4baf19	0.19891013
71	0xbe1a7596	-0.15083918
72	0xbdcf80c2	-0.101319805
73	0x3d7503f6	0.05981823
74	0xbe27158f	-0.16316818
75	0xbd8dcfbe	-0.06924389
76	0xbb026cb6	-0.0019901223
77	0xbceb5eff	-0.028731821
78	0xbcc75f03	-0.024337297
79	0x3e2e16f7	0.17000948
80	0x3d350673	0.044195604
81	0x3e2a490a	0.16629425
82	0x3dc4eab8	0.096150815
83	0x3dd4d39b	0.10391923
84	0xbd996a74	-0.074910074
85	0xbd915ad4	-0.07097402
86	0xbe3d9741	-0.1851473
87	0x3e4646f2	0.19363001
88	0xbd2296b7	-0.039694514
89	0x3e0b3c25	0.13597162
90	0x3db43183	0.08798506
91	0xbced3fdf	-0.02896112
92	0xbdbb4c7c	-0.091454476
93	0x3d054f19	0.032546137
94	0xbe5f4cdb	-0.21806662
95	0x3ce35a10	0.027752906
96	0x3d6810b2	0.056656547
97	0x3dca0572	0.0986432
98	0xbda75014	-0.081695706
99	0xbde48880	-0.11158848
100	0x3e320c82	0.17387584
101	0xbd6d8d27	-0.05799594
102	0xbe08a777	-0.13345133
103	0xbe5a17e4	-0.21298176
104	0x3da7c374	0.081915766
105	0xbb2c9a6e	-0.0026337164
106	0xbe530abe	-0.20609567
107	0xbe19a9a3	-0.15006118
108	0x3dcac1ad	0.09900222
109	0x3d6a1400	0.05714798
110	0xbcab5a7f	-0.020917175
111	0x3e1c1099	0.15240707
112	0x3d3928d0	0.045204937
113	0xbe4bc463	-0.19899134
114	0x3dd01908	0.10161024
115	0xbe3e3a42	-0.18576911
116	0x3cb1249a	0.021623898
117	0xbe47def9	-0.19518651
118	0xbdb6fa8c	-0.08934507
119	0xbe26a5c5	-0.16274174
120	0x3db32db9	0.08748955
121	0xbd6476f9	-0.055777524
122	0xbe87a789	-0.26495007
123	0xbd754011	-0.05987555
124	0x3c9a9e4b	0.018874308
125	0x3d96bf80	0.073607445
126	0xbddce07c	-0.107850045
127	0xbd656185	-0.056001205
128	0xbe2b060b	-0.16701524
129	0x3de69567	0.11258965
130	0x3e040fe3	0.12896685
131	0xbca4fd87	-0.020140423
132	0xbdaf34f1	-0.0855502
133	0x3bda6f86	0.0066661267
134	0xbdb3e25a	-0.087834075
135	0xbe4137bb	-0.18868916
136	0xbdf47701	-0.11936761
137	0xbe566332	-0.20936278
138	0x3da125a5	0.07868508
139	0xbe14156f	-0.14461301
140	0x3a3f1290	0.0007288838
141	0xbde5ce9f	-0.112210505
142	0x3d108e4b	0.03529195
143	0x3e242600	0.16030121
144	0xbe5d53a1	-0.21613933
145	0x3e045cb4	0.12925988
146	0x3dadcbc7	0.08486133
147	0xbcaf3af1	-0.02139041
148	0xbe4b72c6	-0.19868001
149	0xbddaa214	-0.10675445
150	0x3d92586c	0.071457714
151	0x3d72c239	0.059267256
152	0x3e176415	0.14784272
153	0xbe2da6ab	-0.1695811
154	0x3d7e3187	0.06205895
155	0xbdff6c36	-0.124718115
156	0xbd4f841c	-0.0506631
157	0xbd8a4533	-0.0675148
158	0xbc374388	-0.011185534
159	0x3da3ded9	0.08001489
160	0xbdf713d9	-0.120643325
161	0xbdbf95b7	-0.09354728
162	0x3e00e544	0.12587458
163	0x3e32a4dc	0.17445701
164	0x3dc3ee27	0.09566908
165	0x3e313623	0.17305808
166	0x3dba1347	0.09085708
167	0xbe0e5bd2	-0.13902214

conv1.bias f4 [8]
0	0x3dba4959	0.09096021
1	0xbe0dfcce	-0.13865969
2	0x3e139688	0.14412892
3	0xbe4ae00f	-0.19812034
4	0xbda4ec2f	-0.08052861
5	0x3d306095	0.043060858
6	0xbdb80a0e	-0.08986293
7	0x3e06eb99	0.13175811

conv2.weight f4 [16, 8, 3]
0	0xbe4e4685	-0.20144089
1	0xbdee7799	-0.11643905
2	0x3cd30be5	0.025762508
3	0x3da89b53	0.08232751
4	0x3ccb633d	0.024827594
5	0x3dd3ee09	0.10348136
6	0x3d08f014	0.03343208
7	0x3c9644e0	0.018343389
8	0x3c99876f	0.018741338
9	0xbde1acba	-0.11019273
10	0xbdd3983e	-0.10331772
11	0xbe0724f8	-0.13197696
12	0xbdc69460	-0.09696269
13	0xbe3944e4	-0.18092686
14	0x3e0bf5e6	0.13668022
15	0x3e370ab0	0.1787517
16	0x3dde45d5	0.10853163
17	0x3e4f9cb2	0.20274618
18	0x3e2b8c33	0.167527
19	0xbdfc3982	-0.12315656
20	0xbd172b7e	-0.03690671
21	0xbe0d8d0d	-0.13823338
22	0xbe0074a4	-0.12544495
23	0xbda3c63e	-0.07996796
24	0x3cd85272	0.0264065
25	0xbdb0ee59	-0.08639211
26	0xbe35ce6d	-0.17754526
27	0x3e799586	0.24373445
28	0x3d271d89	0.04079965
29	0x3db2f66e	0.08738409
30	0x3e5fb0c0	0.21844769
31	0x3dcd999d	0.10039065
32	0x3d8c3db8	0.068477094
33	0xbdd469e2	-0.10371758
34	0xbda7c378	-0.081915796
35	0xbbb96905	-0.0056582713
36	0xbdc034f5	-0.09385101
37	0xbe2e1fff	-0.17004393
38	0xbdb65e22	-0.08904673
39	0x3e1951eb	0.14972655
40	0x3e28ec18	0.16496313
41	0x3de81023	0.11331203
42	0xbe38abc8	-0.1803428
43	0x3d8fd517	0.070230655
44	0xbe4d0f8a	-0.20025459
45	0x3e1826c4	0.14858538
46	0x3ddbd487	0.10733896
47	0x3ceeae69	0.0291359
48	0x3dfbbdd8	0.12292069
49	0xbe3c5ade	-0.18394038
50	0xbdbcfbfc	-0.0922775
51	0x3de5f2a1	0.112279184
52	0x3e2c1b87	0.16807376
53	0x3d2b0d76	0.041760884
54	0xbe0ef9c8	-0.13962471
55	0x3b3bee2b	0.0028675895
56	0xbbf980fd	-0.0076142536
57	0xbdb42a0d	-0.08797083
58	0x3e22ac6f	0.1588609
59	0xbd58b9d9	-0.052911613
60	0xbe02c850	-0.12771726
61	0x3e4619f6	0.19345841
62	0xbe15824f	-0.1460049
63	0x3e1b1330	0.15144038
64	0xbd2b6b75	-0.041850526
65	0xbd053b53	-0.03252728
66	0x3e054671	0.13015153
67	0xbdf8b85d	-0.121445395
68	0x3e38b6ea	0.18038526
69	0x3e0f3d93	0.13988332
70	0x3d90d6a9	0.07072193
71	0xbe4d4b24	-0.20048195
72	0x3dd086a1	0.101819284
73	0xbe3eb4a7	-0.18623601
74	0xbd969a00	-0.07353592
75	0x3e0af594	0.13570243
76	0x3e1d2790	0.15347123
77	0x3dcfc682	0.10145284
78	0x3cab4cd2	0.020910654
79	0xbe05c955	-0.13065083
80	0xbe2cd226	-0.1687704
81	0x3c93f0c2	0.018059138
82	0xbe18d22d	-0.14923926
83	0x3bf7527e	0.0075476756
84	0xbe176b17	-0.14786945
85	0x3e11c2f5	0.14234526
86	0x3d934eb9	0.071927495
87	0xbe0ed8af	-0.13949846
88	0x3e1bec9e	0.15226981
89	0xbd343dc3	-0.044004213
90	0xbdc919c4	-0.098193675
91	0xbc6551ae	-0.013996525
92	0xbd8cf4b5	-0.06882612
93	0x3e280cde	0.16411158
94	0x3e133895	0.14377053
95	0xbd8a7168	-0.06759912
96	0xbe32dfe1	-0.17468216
97	0x3d15b360	0.03654802
98	0xbdc0408e	-0.09387313
99	0xbc3880b5	-0.011261155
100	0xbdbccfd0	-0.092193246
101	0x3e087f08	0.13329709
102	0x3d3d925b	0.046282154
103	0xbe2c5eed	-0.16833086
104	0xbc7281d1	-0.014801458
105	0xbe2ba2d8	-0.16761339
106	0x3e054339	0.13013925
107	0x3e2409ee	0.16019413
108	0xbe50c5b8	-0.20387924
109	0x3deb0a2e	0.11476551
110	0xbdca529c	-0.09879038
111	0x3e05b463	0.13057093
112	0x3e0549bb	0.13016407
113	0xbe084c74	-0.13310415
114	0x3dd1eced	0.10250268
115	0x3d217167	0.03941479
116	0x3e13bcb3	0.14427452
117	0xbe1968a5	-0.14981325
118	0xbda73283	-0.08163931
119	0xbc6ef273	-0.014584172
120	0xbd813a60	-0.06309962
121	0x3e5c4d62	0.21513894
122	0x3e5331bf	0.20624445
123	0xbe1081a2	-0.14111951
124	0x3d748245	0.059694547
125	0x3d1a6ead	0.037703205
126	0xbdbf8829	-0.09352142
127	0x3d259aef	0.04043096
128	0xbcb28826	-0.021793436
129	0x3c913bae	0.017728653
130	0xbdeafe07	-0.11474233
131	0xbe40fc90	-0.18846345
132	0x3cecf2ad	0.02892431
133	0xbe428ea8	-0.18999732
134	0xbe1fcc0e	-0.15605184
135	0x3d9ffefa	0.07812305
136	0xbe237c5a	-0.15965405
137	0x3e143532	0.14473417
138	0xbd8b48b0	-0.068009734
139	0xbbdcca68	-0.006737996
140	0xbd0f2f77	-0.034957375
141	0xbdd73757	-0.10508602
142	0xbe08cc97	-0.13359295
143	0x3d0f4a60	0.03498304
144	0xbdc3beee	-0.09557901
145	0x36e074a0	6.689297e-06
146	0xbe41e017	-0.1893314
147	0xbb868fe8	-0.0041065104
148	0x3cbb7ca4	0.022886582
149	0xbd9420f3	-0.07232847
150	0xbe033da5	-0.12816484
151	0x3d46f1c2	0.048570402
152	0x3db8e193	0.090274
153	0x3e10967f	0.1411991
154	0x3dd2cd2e	0.10293041
155	0xbbf4ec3d	-0.007474451
156	0x3e0549cb	0.13016431
157	0xbbe0fa42	-0.0068657706
158	0xbda1dac1	-0.07903052
159	0xbe146e8d	-0.14495297
160	0x3e277889	0.16354574
161	0xbd1a19fc	-0.037622437
162	0x3de6abc6	0.11263232
163	0xbe19af03	-0.15008168
164	0x3c026ba7	0.007960237
165	0xbe0b58cc	-0.13608092
166	0xbde70785	-0.11280731
167	0xbd055644	-0.032552972
168	0x3d3210ec	0.04347317
169	0x3ddbc61d	0.107311465
170	0xbe3a3505	-0.18184288
171	0x3dc88f57	0.09792965
172	0xbe47deec	-0.19518632
173	0x3dee4318	0.11633891
174	0x3d22d949	0.039758
175	0xbce7fa14	-0.028317489
176	0xbbf2cd4b	-0.0074097267
177	0xbd2f7f04	-0.04284574
178	0xbe17c689	-0.14821829
179	0xbd7175e9	-0.05895034
180	0x3e06f3fc	0.1317901
181	0x3e12c383	0.14332394
182	0xbd468e40	-0.048475504
183	0x3dca1104	0.09866527
184	0xbd94cf5d	-0.07266114
185	0x3e192245	0.14954479
186	0xbd363d5d	-0.044492114
187	0x3d83d7db	0.064376555
188	0xbe422980	-0.18961143
189	0xbe570997	-0.20999752
190	0xbe182dea	-0.14861265
191	0x3d99a055	0.07501284
192	0xbdffad51	-0.12484229
193	0x3e66283b	0.22476284
194	0x3cefeece	0.029288676
195	0xbe14f198	-0.14545286
196	0xbe799c2b	-0.2437598
197	0x3ddfb6f4	0.109235674
198	0xbd47444e	-0.048649125
199	0x3ceeca21	0.029149117
200	0x3e131658	0.14363992
201	0xbde4cbc1	-0.111716755
202	0xbca132be	-0.019677516
203	0x3da6ea8e	0.081502065
204	0xbe03c265	-0.12867124
205	0xbe59cd7a	-0.2126979
206	0xbaa8da2f	-0.0012882407
207	0x3e05c617	0.13063847
208	0xbe27ca6c	-0.16385812
209	0xbcea0949	-0.02856888
210	0xbe4f4362	-0.20240548
211	0xbdd7643d	-0.10517166
212	0x3c0d3bf7	0.008620254
213	0xbd9c76c1	-0.07639838
214	0x3e10d2f6	0.14142975
215	0xbdeadbb8	-0.11467689
216	0xbdb07ea8	-0.08617908
217	0x3e585e34	0.21129686
218	0xbd2ea44d	-0.04263716
219	0x3d1d7abe	0.038447134
220	0x3dede2f5	0.11615554
221	0xbde7069d	-0.11280558
222	0xbcb66c35	-0.022268394
223	0xbd7a880a	-0.061164893
224	0xbe1ebf71	-0.15502717
225	0xbe447abe	-0.19187447
226	0x3d504c52	0.050854035
227	0x3e19ba3d	0.1501245
228	0x3e607c43	0.21922402
229	0x3e4ad7d5	0.19808896
230	0xbdd4aa48	-0.10384041
231	0x3df18884	0.117936164
232	0xbdc1fdb0	-0.09472215
233	0x3e32d2e6	0.17463264
234	0x3d95b370	0.073096156
235	0xbe16d32e	-0.14728996
236	0xbd67eef9	-0.056624386
237	0xbdfd2a33	-0.123615645
238	0xbe23e632	-0.16005781
239	0xbd56f083	-0.052475464
240	0x3e1fd80a	0.15609756
241	0xbdfae8ae	-0.122514114
242	0x3cc9cc3f	0.024633525
243	0x3deb41d2	0.114871636
244	0xbcc1159b	-0.023569873
245	0x3da33164	0.07968405
246	0xbe459529	-0.19295181
247	0xbdead22b	-0.114658676
248	0xbe22fc08	-0.15916455
249	0xbdd8d433	-0.10587349
250	0x3e2e9738	0.17049873
251	0xbd06edb0	-0.03294152
252	0xbc61eef2	-0.013789879
253	0xbe1ea5a7	-0.15492879
254	0x3e51ca5a	0.20487347
255	0x3e260e83	0.16216473

conv2.bias f4 [16]
0	0x3e63beec	0.222408
1	0x3d8acfbf	0.06777906
2	0xbc0f9021	-0.00876239
3	0x3de0d3b3	0.109778784
4	0x3d23c431	0.039982025
5	0x3d8217f9	0.06352229
6	0x3d059e74	0.032621816
7	0x3e1f3e21	0.15551044
8	0x3a338b75	0.0006849089
9	0x3d214882	0.03937579
10	0x3e218514	0.15773422
11	0xbd90f46e	-0.07077871
12	0xbde3c0dc	-0.111207694
13	0xbd7fc298	-0.06244144
14	0x3e112fc0	0.14178371
15	0x3e1805bc	0.14845937

fc.weight f4 [2, 96]
0	0x3d1a35b1	0.03764886
1	0x3dffb18d	0.12485037
2	0x3d45e134	0.048310474
3	0x3dadf8db	0.08494731
4	0x3e0ebaf1	0.139385
5	0xbc20e620	-0.009820491
6	0x3df9b57b	0.12192818
7	0x3d5deb2f	0.054179367
8	0x3c450b52	0.012026625
9	0xbd8239d1	-0.06358684
10	0x3d5131af	0.051072773
11	0x3ddd5937	0.10808032
12	0x3c10ed0c	0.008845579
13	0xbcac9121	-0.021065297
14	0xbdbd8641	-0.092541225
15	0xbde8b8b7	-0.113633566
16	0x3c0e92a6	0.008701956
17	0x3d0bf2c8	0.03416708
18	0xbd0dcf00	-0.03462124
19	0xbd8f302e	-0.069916114
20	0x3d3a599e	0.04549562
21	0x3d78f216	0.060777746
22	0xbdbe0697	-0.09278601
23	0xbdb6492f	-0.089006774
24	0x3cf88e7c	0.03034138
25	0x3ded8735	0.11598054
26	0x3cd181b6	0.025574546
27	0x3ccfa733	0.025348281
28	0x3dc0e1b3	0.09418049
29	0x3d3cb36f	0.04606956
30	0xbdcdd3e8	-0.100501835
31	0xbcc74638	-0.024325475
32	0xbd2e84df	-0.042607184
33	0xbd820131	-0.063478835
34	0xbc1a14d8	-0.009404384
35	0xbdc55955	-0.09636179
36	0x3da64ab6	0.08119719
37	0xbd61a116	-0.055085264
38	0xbd557c89	-0.05212072
39	0x3dec0a4e	0.11525403
40	0x3bbbc604	0.0057303924
41	0x3d87daea	0.066335514
42	0x3c492f6f	0.012279375
43	0x3cdc8cbc	0.026922576
44	0x3d348452	0.044071503
45	0x3db04caf	0.08608376
46	0xbc930918	-0.017948672
47	0xbd8fd8df	-0.07023787
48	0xbd467a8a	-0.048456706
49	0x3ce36f55	0.027763048
50	0x3d4c70aa	0.049912132
51	0x3d92657d	0.071482636
52	0xbd9fd7c6	-0.078048274
53	0xbdadedf2	-0.0849265
54	0xbd65a5f0	-0.056066453
55	0xbd13b3bd	-0.036060084
56	0xbdaff661	-0.08591915
57	0xbcf249f7	-0.029576285
58	0xbbc8571a	-0.006113899
59	0xbd4259c8	-0.047448903
60	0xbd7426d8	-0.059607357
61	0xbca8e25f	-0.020615755
62	0xbd4cdd3e	-0.05001568
63	0xbc2f7343	-0.010708633
64	0xbafcca16	-0.00192863
65	0xbc87df95	-0.016586104
66	0xbdaf5d81	-0.08562756
67	0x3dd1d11e	0.10244964
68	0x3de18420	0.11011529
69	0xbd84ad87	-0.0647841
70	0xbcd4891b	-0.025944283
71	0xbd09931a	-0.033587553
72	0xbdb2ca76	-0.087300226
73	0xbd8f9095	-0.07009999
74	0xbcfae8bf	-0.03062856
75	0xbcef69a0	-0.02922517
76	0x3d0757ea	0.033042826
77	0xbdec71f3	-0.115451716
78	0xbdca32e5	-0.098729886
79	0xbda0bf7e	-0.07849024
80	0x3d16205d	0.036651958
81	0x3c26d17d	0.010181782
82	0xbc95d294	-0.018288888
83	0x36c723d0	5.9348313e-06
84	0x3d9b99d4	0.075977
85	0xbdcc1fb6	-0.09966986
86	0x3d945023	0.07241847
87	0x3d2d03e6	0.042240046
88	0x3ccd9d36	0.025099378
89	0xbd5aebaa	-0.053447403
90	0x3d86b0b7	0.065766744
91	0x3d0cca09	0.034372363
92	0x3c7754ee	0.015095932
93	0x3d92aa34	0.0716137
94	0xbdc52153	-0.09625497
95	0xbcf0dbb9	-0.029401647
96	0xbd7860c6	-0.060639165
97	0x39beeb9d	0.0003641517
98	0x3d1912cf	0.037371453
99	0xbdb54c9a	-0.08852501
100	0xbe04206a	-0.1290299
101	0xbe1b8688	-0.15188038
102	0x3d901e3e	0.07037018
103	0xbce916c4	-0.028453238
104	0xbd1f712b	-0.038926285
105	0xbdccaa70	-0.09993446
106	0xbdc1b3de	-0.09458135
107	0xbdd383a3	-0.10327842
108	0xbb49e998	-0.0030809399
109	0xbcdaf5a2	-0.026728455
110	0xbd2d44f1	-0.042302076
111	0xba7a318c	-0.0009544126
112	0x3bf0ee7e	0.0073526492
113	0xbda804b9	-0.08204026
114	0xbd9e59ea	-0.077319935
115	0xbd19069d	-0.037359823
116	0x3de5981c	0.11210653
117	0xbd65cd08	-0.056103736
118	0x3c11f85b	0.00890931
119	0xbd95c9fa	-0.073139146
120	0xbe000b41	-0.12504293
121	0xbdaa8f41	-0.08328105
122	0xbd4f715e	-0.050645225
123	0x3d8a093f	0.06740045
124	0x3d994ad5	0.07484976
125	0x3cef7f79	0.029235588
126	0x3db7c934	0.08973923
127	0x3d10f4ef	0.035389837
128	0x3ddf3782	0.10899259
129	0x3ce1b85d	0.027553732
130	0xbdbf468a	-0.09339626
131	0x3ce60039	0.028076278
132	0xbd8e816c	-0.06958279
133	0xbe066fed	-0.13128634
134	0x3d9eb9a9	0.077502556
135	0x3cc5ceaf	0.024146406
136	0xbd8ce881	-0.06880284
137	0x3b2548b3	0.0025220334
138	0xbd99a8a5	-0.075028695
139	0x3d7212ee	0.059100084
140	0x3d8464dc	0.0646455
141	0xbd87d304	-0.06632045
142	0x3c263aed	0.010145885
143	0x3d843815	0.06456009
144	0x3dbe1c2a	0.092827156
145	0x3ddf679a	0.10908432
146	0x3d8c34e4	0.068460256
147	0x3d66d9e2	0.056360133
148	0x3cef323f	0.029198764
149	0x3dac740c	0.08420572
150	0x3d82b2bf	0.06381749
151	0x3cc02371	0.0234544
152	0xbd19da01	-0.03756142
153	0xbd5800e3	-0.05273522
154	0xb980a99f	-0.0002454044
155	0xbda0f678	-0.0785951
156	0xbba6650c	-0.0050779637
157	0x3d9d3846	0.07676749
158	0x3b96a8fc	0.004597781
159	0xbce4499f	-0.027867137
160	0x3d285701	0.0410986
161	0xbcd7c491	-0.026338847
162	0xbdb261b4	-0.08710042
163	0x3c2050a5	0.009784852
164	0xbd6dcb45	-0.05805518
165	0xbd8c65ed	-0.06855378
166	0xbc3e3c9f	-0.011611133
167	0x3c79fa16	0.015257379
168	0xbd411a57	-0.04714426
169	0x3d16d51e	0.03682434
170	0x3cc58def	0.02411553
171	0x3c492975	0.0122779505
172	0x3dfa2d8d	0.12215719
173	0x3d935a76	0.071949884
174	0xbdb9e9b1	-0.09077776
175	0x3ccc8f91	0.024970802
176	0xbccf12e1	-0.025277557
177	0xbde1be78	-0.11022657
178	0x3c1b719f	0.009487539
179	0x3cdb3506	0.026758682
180	0x3d6d6c62	0.05796469
181	0x3c822652	0.015887413
182	0xbbde83d7	-0.006790619
183	0xbd607230	-0.054796398
184	0x3d3f9d74	0.04678102
185	0x3c4a75e1	0.012357206
186	0xbc1c1a64	-0.009527776
187	0xbd8ba2ab	-0.06818136
188	0xbd9de7a7	-0.077102
189	0xbb7d089b	-0.0038609866
190	0x3d6ed928	0.058312565
191	0x3d76c4eb	0.06024639

fc.bias f4 [2]
0	0x3ddc19ea	0.1074713
1	0x3cfbf24f	0.03075519
