data/best_tcnn.pth (torch, 137244 bytes, 6 tensors)

conv1.weight f4 [62, 7, 4]
00000000: 669d d63d f9cb 1abd 284f a63c faab 0dbe
00000010: c39e a83c 712c e23c 724b d0bd 8bdd 5a3c
00000020: 36e0 1b3e 1688 d93d 31b1 c43c e2ad 59be
00000030: 1ee8 d93d 17a3 e43c d1a6 f6bd ad6e ed3c
00000040: 799d e43d 200e 8b38 1d51 55be 2f7a 46be
00000050: 315c 023e 731d babd b216 a53d 85b3 693e
00000060: 4857 cebe 9083 3fbe 10af b3bd 874f 9dbe
00000070: ec78 86bd 78d6 993c d667 073e 26bd e83d
00000080: 32ce ff3c c3f2 76bc 5c70 d43d e4c0 babc
00000090: e269 d33d 5145 e73d 77c7 39bd 4f3e b5bd
000000a0: fe00 8cbd e960 12be 1f75 9abd 14fd 06be
000000b0: 077a 363e 2ca7 b43b 19c3 0c3e 4e74 203d
000000c0: f8d7 7ebe 91e8 a5be 4b8c 69bc 61a3 86be
000000d0: 6c24 433e 47f7 463d 1336 9e3e 09b2 3c3d
000000e0: 4560 003e dd21 cd3d 7369 f239 d430 c53a
000000f0: 1174 bb3d ae30 f83c b012 0f3e 664c f9bd
00000100: 66f1 7bbd 95fe 1f3e 43d3 ebbd a01b 463d
00000110: 68ad 353c 9cd8 3abd f2fd ebbd 814e c93d
00000120: d92f 093d 9823 d03b 3f93 d23d 311a a63d
00000130: 3dd6 8ebe 0bdb 0ebe a794 c6bd 2f71 3abb
00000140: 71cc 5d3d 6c53 503e 95d7 903e f4ae 8c3e
00000150: 0dd1 dabd a1b6 d6bd 78ab 2dbd c34e c4bd
00000160: 4e23 3cbe f1f3 a6bd 0726 0abd aa07 0fbe
00000170: 9d12 5ebe 9a96 0dbe 9a3f 25be ebd6 d33c
00000180: 7a69 6e3d 85bd f5bd 564a 24be 0e35 0a3d
00000190: 8939 71be 381e 9bbd f97a 20bd b47a b1bd
000001a0: 47ca abbd 2898 88bd 2aa1 a1bd dc02 d03d
000001b0: 41e1 9f3d 0db0 563d fdfb 143e 6ea2 1f3e
000001c0: 664b 8f3d a134 f4bd 86ea bf3c 0e19 30be
000001d0: 5503 27be 0d8a 80be f0b2 8fbc 3bc4 6fbd
000001e0: a69d ecbd 6fc9 4abe 364d 65be afb7 6bbe
000001f0: c547 37bd 033a 3b3d 0fd2 1ebd 8a00 49be
00000200: 938f 24be ccbe 86be 9651 38be 0c84 84bd
00000210: 7e11 233d 2108 823d 07ee 373e 4de5 94be
00000220: fbd2 723e 2ccd c4bd c353 783d d27d 9d3b
00000230: 3e49 ff3d f3c3 1a3e 4270 1a3e b322 443e
00000240: 098e 04be 022c 2c3e 6963 ab3d bb85 65bd
00000250: c8fa 13bd 4493 593d 12c0 033e 0e5f 963d
00000260: 9aa9 343e 42dd b6bb acb4 24bd bde8 1a3c
00000270: 110d 6d3d fa29 91bd 893a 03be e60f 413e
00000280: 56d8 433d ba96 b0be cd41 22bd 1801 92bd
00000290: ece8 42bd 3baa 903d fe1b 243e 39a6 853e
000002a0: eb99 653d b1a2 083e 8d2b 933d 1ac6 09be
000002b0: cdf5 5fbd b393 8f3c 2867 423d de77 bdbc
000002c0: 1ac8 113e 63d4 fbbc 6101 1cbe 5984 4fbe
000002d0: c20f 083e 4367 e2bd e796 16bd 0ea1 84bd
000002e0: ed40 c0bc bb2d 22be e360 19be a025 debc
000002f0: fb3a eebd a9d8 93be 851e 48bd dc24 a2be
00000300: 07c5 af3d b2f8 d7bd a091 9b3e 6ffe dcbc
00000310: 83f0 093e 58ae 093e c46a f5bd 3ef0 03be
00000320: 2416 59be 0758 9b3c fdce eb3d a489 08bc
00000330: 5f7b 983d 5dd0 8ebd 036d 9e3c e6f6 15be
00000340: 3b5c 23be de7e 2cbe 023b 06be cc2a 30be
00000350: 3cb0 9fbd e5a5 03bd 9ef0 69be 4b6e fbbc
00000360: a54a ce3d 1237 253e d404 b0bd d101 223d
00000370: 521a db3d 96bf 163d 7bab d93d e900 87be
00000380: 2b10 0abe 89ce 053e 5f10 3a3e c419 f03d
00000390: 735d 33be 9bad 4a3d 1967 0a3e f174 2a3d
000003a0: e9f2 08be bf0d 96bd 2415 4fbd 3488 0cbe
000003b0: 0251 8ebd 7f9c febd 919b 2c3d 8a72 fa3d
000003c0: 3d2f 2e3e c1b9 4a3d 6938 79bd 2b1b 713d
000003d0: fba8 5abe a8f6 a5be a50a a7be 8864 a8be
000003e0: c154 ab3d 5ba0 583e a823 31be d1b4 303e
000003f0: 866c 38be 484c 8c3d 66df 37be 4158 6a3c
0.1047924 -0.03779218 0.020301417 -0.13835135 0.020583516 0.027609082 -0.1017064 0.013358484
0.15222248 0.106216595 0.024010273 -0.21257737 0.10639976 0.027909799 -0.120435365 0.028983438
0.11162848 6.6306675e-05 -0.20831724 -0.19382547 0.1273048 -0.09087648 0.080609694 0.22822388
-0.40300965 -0.18702531 -0.08773625 -0.30724737 -0.06566033 0.018779024 0.13223204 0.11364202
0.031226251 -0.015072527 0.10372993 -0.022797056 0.1032293 0.11292518 -0.04535624 -0.08849775
-0.06836127 -0.14294781 -0.0754187 -0.13182479 0.17819987 0.0055130925 0.13746299 0.039173417
-0.24887073 -0.32403997 -0.01425464 -0.26296523 0.19056863 0.048575666 0.3090063 0.046068225
0.12536724 0.100162245 0.00046236403 0.0015044459 0.09152997 0.03029665 0.13971972 -0.12172775
-0.061509512 0.15624459 -0.11514904 0.04836619 0.011088707 -0.04561673 -0.115230456 0.098294266
0.033492897 0.0063518994 0.10281991 0.08110464 -0.27897826 -0.13950746 -0.09696322 -0.002844881
0.05415005 0.20344323 0.28289476 0.2747723 -0.106844045 -0.104840524 -0.042399853 -0.09585335
-0.18372843 -0.08151997 -0.033727672 -0.13967767 -0.21686788 -0.13826981 -0.16137543 0.025859317
0.05820606 -0.119990386 -0.16043982 0.033742003 -0.23557104 -0.07574123 -0.039179776 -0.08665982
-0.08388191 -0.066696465 -0.07892068 0.101567954 0.07806636 0.05241399 0.14549251 0.15589306
0.06996803 -0.11924101 0.02342726 -0.17197058 -0.16309865 -0.25105324 -0.017541379 -0.05853675
-0.115535066 -0.19803403 -0.22392735 -0.23019288 -0.04474618 0.04570962 -0.038774546 -0.19629112
-0.16070394 -0.2631744 -0.17999873 -0.064704984 0.039811604 0.06349207 0.17961894 -0.29081193
0.23713295 -0.09609446 0.060626756 0.0048062587 0.12465142 0.15113811 0.15081885 0.19153862
-0.12944807 0.16813663 0.0836857 -0.05603574 -0.036127836 0.05311896 0.12866238 0.07342349
0.17642823 -0.005580575 -0.040211365 0.009454903 0.05787379 -0.070880845 -0.12815298 0.18853721
0.047813736 -0.34489995 -0.039613534 -0.07129115 -0.047585413 0.07063719 0.16026303 0.2610338
0.05605499 0.13343312 0.07186041 -0.13454476 -0.054677773 0.017526483 0.04746166 -0.023128446
0.14236489 -0.030740922 -0.15234901 -0.2026533 0.13287261 -0.11054852 -0.036765005 -0.06476031
-0.023468459 -0.15837757 -0.14978366 -0.02711755 -0.116323434 -0.28876236 -0.04885723 -0.31668746
0.08582502 -0.10545482 0.3038454 -0.026976792 0.13470654 0.13445413 -0.119832546 -0.12884614
-0.21199852 0.018962873 0.11514089 -0.008333597 0.07445406 -0.06973336 0.01933909 -0.14644966
-0.15953152 -0.16845271 -0.13108447 -0.17203826 -0.07797286 -0.03214063 -0.22845694 -0.03069224
0.10072831 0.16134289 -0.08594671 0.039552514 0.106983796 0.036803804 0.106284104 -0.26367882
-0.1348273 0.13067068 0.18170308 0.117236644 -0.17516117 0.04948197 0.13515891 0.04161543
-0.13373913 -0.073268406 -0.05055727 -0.13723832 -0.06949045 -0.12432193 0.042140547 0.12228878
0.17010207 0.049493555 -0.060844813 0.0588638 -0.21353523 -0.32414746 -0.3262531 -0.328892
0.08365775 0.21154921 -0.17298758 0.17256476 -0.18010148 0.06850487 -0.17956313 0.014303268

conv1.bias f4 [62]
00000000: 7184 b6bc 4672 80bd 71a7 4c3d ab72 873d
00000010: ed80 da3d 6696 1d3c 4d7c 313e cccd 1bbe
00000020: e852 35be 5e4e 18be e930 4c3e 4490 adbb
00000030: f8cb 7dbe 96e2 b2bc 279b 41be 8978 86be
00000040: 6f7c 58bc ecc5 233e 7ac1 273e a828 0b3c
00000050: 145a 88bd a0c4 f6bd a254 d3bd 6a06 92be
00000060: 7d14 f53d a595 4ebe c8bc 4dbe c44e 89bd
00000070: 5a22 eb3d ac70 13be 11fe 2c3d 3ab3 71be
00000080: 09ce 07be 120a 6dbe 413a 363d 04e8 07bd
00000090: b19e 753d 6c1e 5bbe 4425 843c 66dc 97be
000000a0: 75a4 123e 9231 9d3d da86 03be 0c84 84bd
000000b0: 2fc0 d6bd 9bb1 bf3c 3580 143e 3c9f 94be
000000c0: 542c 41be a842 6fbe 8650 47be ba68 5d3e
000000d0: df1c 8abd 060e 103d 5e6c cd3d f225 1cbd
000000e0: 389d 983d 0dd2 6ebd cc13 7e3b 3775 09bd
000000f0: d0bf 8abd 73d9 0ebc
-0.02227995 -0.06271796 0.049964372 0.06613668 0.10669122 0.009618377 0.17332573 -0.15215224
-0.17707407 -0.14873645 0.19940533 -0.005296739 -0.24784839 -0.02183656 -0.18906842 -0.26263836
-0.013213261 0.1599347 0.16382399 0.00849358 -0.06657806 -0.12049222 -0.10318877 -0.2852052
0.119667985 -0.20174272 -0.20091546 -0.067044765 0.114811614 -0.1439845 0.042234484 -0.23603526
-0.1326219 -0.23148373 0.04448915 -0.03318025 0.059965793 -0.21398324 0.01613105 -0.29660338
0.14320548 0.076754704 -0.1284441 -0.064704984 -0.10485875 0.023400119 0.14502032 -0.29027736
-0.18864566 -0.23365271 -0.19464311 0.21621981 -0.06743788 0.035169624 0.10030435 -0.038122125
0.07451862 -0.05830579 0.0038769124 -0.03355905 -0.067748666 -0.008718836

conv2.weight f4 [124, 62, 4]
00000000: c8e8 b7bc 7060 5abd 50a2 b23c 059b a3bd
00000010: 2d29 83bc d131 a0bd aeee 6bbd 04db 0abd
00000020: efac d2ba 7b69 8c3c 0a73 1f3a 2795 1dbd
00000030: 2590 383d 1d7f 89bd 1a20 6bbd a09c 1fbd
00000040: d515 88bd e8e1 70bc 6096 e73c b0cf b1bc
00000050: 17cb 81bd a1fb 53bd 05ec 77bd d007 52bd
00000060: e293 4fbd 7057 fb3a 2479 98bc c057 8dbd
00000070: 7f19 a0bc cc82 36bd b950 a13b dbec ccba
00000080: 1978 20bd 6f1c 033c c4fe 553c 161f 9eb8
00000090: 7bda febc 3001 7ebc 7429 15bd 5aa4 183b
000000a0: d356 b9bb 112b f8bb 6dae d5bc 044c 0a3d
000000b0: 9574 35bd c8e6 08bd f42a 59bd a819 e9bb
000000c0: 4b75 2ebd 2941 163d 7e6e 883c d81c 0cbb
000000d0: 2ee5 ab3b 7cec 8dbd 1efd b1ba 5afb f03c
000000e0: 0ad8 44bc 49c8 9abd ea33 a73c d040 f93b
000000f0: 59e8 22bc c679 ac3c edb1 1c3d 5307 163d
00000100: 0cfb 523d 123f 96bd ffb8 bb3c a325 1239
00000110: 87da 68bd 4ddd 153d 1c4a e0bc 05c7 f5bb
00000120: 58c2 2abd 1f5f 473c 2359 47bd cb8a 89bc
00000130: 74c1 40bd 4c15 c33b bb27 8fbd da77 b13c
00000140: 79ad 19bd 01c1 f7bc 4c09 5bbc 2129 113d
00000150: a905 553c 6b85 11bb 48c4 98bc d383 d13c
00000160: 0104 91bd 2547 d03c 4b4b 933b 1c5f c7bc
00000170: 3b23 0b3d 2d3c 23bd df73 30bd b079 80bd
00000180: 97ad fd3b af4b 76bd 3c4b a03a 1a6e 3bbd
00000190: a7e6 003d f59c 83bc eb8d c7bb 62e3 383d
000001a0: 782d 96bc aa81 2c3b 4b4b b83c 9fd8 aabd
000001b0: 53ab a6bd d324 4bbd 79b1 683c 6f79 c03c
000001c0: 69c6 7fbd f127 f63c 9d97 173d 87f0 13bd
000001d0: 174d 0cbd a758 49bd 30e0 91bd afad 58bd
000001e0: f7c6 84bb 3f7d 06bd df2f 6ebd c4f9 a23b
000001f0: 067f 32bd 9e49 afbd 15f1 aabd 9f7e c43c
00000200: a955 913c 5df0 dd3c 46f8 cbbc 5d99 a8bc
00000210: cd70 b13a cffd c93c 0484 b0bd b7a2 093d
00000220: 876d 73bd e3f2 90bd a9bc 7dbd cdf2 54bd
00000230: 7bb9 083d caa6 f83c b260 b4bc ec4b 79bd
00000240: 3eff 393d 5589 bb3c d04e e33c b1a2 8ebd
00000250: 7245 6abd 047a 0d3d 10f8 8bbc e928 62bd
00000260: c2cc 44bc 130c 93bc 5721 4b3d eb01 303d
00000270: 7df5 2dbd 3cbe 11bd e825 513c 4325 0f3c
00000280: 4f9e 1a3d 4a52 a03c c627 aa3b 8fbf 05bd
00000290: 899e 2b3d af54 3bbd 03f0 1b3d e9b6 9cbd
000002a0: e6e3 36bd 61f4 3e3c 946f b33c 6a2a b53c
000002b0: d2a0 e2bc e75f 9b3c 8356 213d 5a1b 4cbd
000002c0: 605e 61bd 98d3 ec3c 5376 873c 43b5 16bc
000002d0: a78b 30bb f6d9 8dbd 3d92 2d3d ae08 90bd
000002e0: 94d1 12bd 80d8 67bd 948f 373d 27ed 59bd
000002f0: 49e9 1cbd 7fda bd3c 990e c33c 03e1 85bd
00000300: b342 f0bc 6f74 1abd db39 353d 4c4d 27bd
00000310: c6bf d4bc 0aa6 713c 8516 7fbd 59f5 2d3d
00000320: f8db 34bd 5a27 403c cf03 cd3c 5796 88bd
00000330: 7781 313d eb96 833c e415 e73c 36a5 be3c
00000340: 247d 853c 860e b83b 0761 eeb9 ceed 9a3c
00000350: ab9f 39bd 214e 133c 25c5 0dbd 018b 233d
00000360: 3d86 c4bc 1524 7f39 9b2d 3ebd b2b3 5bbd
00000370: 64a9 e8bc eb2e 9bbd b500 083d 1cb0 90bd
00000380: 0e83 123d 97c3 04bd 9589 3cbd 42e1 213d
00000390: 3633 ca39 4f6b 60bd e1ac 30bb 5190 03bb
000003a0: 9b17 273b 14ba 87bd 3664 d9bc 0eea 4c3c
000003b0: 22ad 9a3c ecd5 50ba 03ab bf3c 4745 a4bd
000003c0: c264 29bc 80c5 7d3c 66ea d33b a768 8cbd
000003d0: 5d38 ccba 8357 69bc bce3 a63c be6b 07bd
000003e0: f077 b5bd 41f1 9e3c bd50 94bd 5540 8cbd
000003f0: 4d36 38bd 2395 443c 65e7 fa3d 74f7 f13b
-0.022449866 -0.053314626 0.021805912 -0.07988552 -0.016010845 -0.07822002 -0.05760067 -0.033900276
-0.0016073267 0.01714014 0.0006082511 -0.03847232 0.045059342 -0.06713698 -0.05740366 -0.03896773
-0.06644789 -0.014702298 0.028269947 -0.021705478 -0.063375644 -0.051753644 -0.06052782 -0.05127698
-0.05067814 0.0019175839 -0.018612452 -0.069015026 -0.019543407 -0.04455833 0.004922953 -0.0015634553
-0.039177034 0.008002385 0.013061229 -7.539817e-05 -0.031110039 -0.015503213 -0.036416486 0.002329132
-0.005656102 -0.0075734933 -0.02608415 0.0337639 -0.044300634 -0.033423215 -0.05301948 -0.007113654
-0.042592328 0.036683235 0.01665425 -0.0021379497 0.005245826 -0.069298714 -0.0013579463 0.029416729
-0.012014398 -0.075577326 0.020410497 0.007606603 -0.009943091 0.02105416 0.03825562 0.03662808
0.05150895 -0.073362485 0.022915361 0.00013937666 -0.05684903 0.036588002 -0.027379088 -0.0075005316
-0.041689247 0.012168675 -0.04866899 -0.016789814 -0.04705949 0.0059534665 -0.0699 0.021663595
-0.037518952 -0.030243399 -0.013368916 0.035439614 0.013001838 -0.0022204767 -0.018648282 0.025575554
-0.07080842 0.02542455 0.0044950596 -0.024337344 0.033969145 -0.03985231 -0.043079253 -0.0627321
0.007741641 -0.06013077 0.0012229453 -0.045759298 0.031469967 -0.016066054 -0.006089916 0.045138724
-0.018332228 0.0026322403 0.02249684 -0.083420984 -0.08138146 -0.049595665 0.014202469 0.023495404
-0.062445078 0.030048342 0.037009824 -0.036118057 -0.034253206 -0.04915681 -0.071228385 -0.052900013
-0.004052039 -0.032834288 -0.058151122 0.004973622 -0.04357817 -0.08558963 -0.08346764 0.023986159
0.017741041 0.027092153 -0.02489866 -0.020580942 0.0013537646 0.024657158 -0.0861893 0.033602443
-0.059430625 -0.07077577 -0.0619475 -0.051989365 0.033380013 0.030352969 -0.022018764 -0.06086342
0.045409434 0.022892633 0.027747542 -0.06964625 -0.057195134 0.03454019 -0.017086059 -0.055214796
-0.012011709 -0.017950093 0.049592342 0.04297058 -0.042470444 -0.035581812 0.012765385 0.008736911
0.03774863 0.019570488 0.0051927296 -0.032653388 0.041899238 -0.045735057 0.03807069 -0.07652075
-0.044650935 0.011654944 0.02190379 0.022114951 -0.027664576 0.018966628 0.039389145 -0.049830772
-0.055021644 0.02890949 0.016535914 -0.00919849 -0.0026938708 -0.069263384 0.04237579 -0.070329055
-0.0358444 -0.056602955 0.04481466 -0.05320468 -0.038308416 0.023175476 0.023810672 -0.06537058
-0.02932868 -0.037708696 0.04424463 -0.0408452 -0.025970351 0.014749059 -0.062277336 0.04247031
-0.04415509 0.011728132 0.02502623 -0.066693 0.043336358 0.016063174 0.02820868 0.023272138
0.016295023 0.0056169657 -0.00045467188 0.018912222 -0.045318287 0.008990795 -0.03461184 0.039927486
-0.023989791 0.00024332137 -0.04643021 -0.053638168 -0.028401084 -0.07577308 0.0332038 -0.0706484
0.035769515 -0.03241309 -0.046029646 0.039521463 0.00038566598 -0.054789837 -0.0026958513 -0.0020075033
0.0025496248 -0.066272885 -0.026537042 0.012506975 0.018881384 -0.0007966447 0.023396974 -0.08021026
-0.010338964 0.015488982 0.0064671515 -0.06855898 -0.0015580762 -0.014242056 0.020372264 -0.033061735
-0.08860767 0.019402148 -0.07241962 -0.06848208 -0.04497366 0.011998448 0.12251166 0.007384235

conv2.bias f4 [124]
00000000: b4ad 71bd 5aab 763c 851c 33bd 086b 883c
00000010: 1be3 5cbd cf4e 6fbd df9c b1bc bc97 353d
00000020: 322b 303d 157d b43b e970 fabc 8db7 e23c
00000030: a317 033d 1096 41bd c69e e73b af34 02bd
00000040: 2588 073d 1220 0d3c c516 74bd 7790 f6bd
00000050: 954b 253c 1c7c 373c aa04 12bd c7c0 983d
00000060: 82d3 e53d 5067 423d b52b a0bd ac2a aa3d
00000070: b11c da3c f4c8 6bbd 1026 51ba 7055 4dbd
00000080: 5f0f adbc 7e21 1b3c 0df0 c5bc d493 89b8
00000090: 7793 333d c5fe 87bd e8f4 90bd 14f3 7bbd
000000a0: c554 26bd 0e40 a6bd 7cdb eabc 350b b53c
000000b0: 3664 5bbd 4361 babd e161 053c 6cba 023b
000000c0: da48 d63d 8c33 f93c c4dc d0bd eab5 0cbd
000000d0: 907f 89bc 2537 bfbc d4ae c9bd 863e 52bd
000000e0: 8de3 483d c164 c5bd 8312 babd 698d 99bd
000000f0: e8b9 ed3a ba2e bc3c 3460 ee3d 34ae 243c
00000100: ebfe b0bd 22d9 843c 3cfd b4bd 4357 173d
00000110: 0236 afbd 7319 0fbd 2399 403b 718c 99bd
00000120: 8f89 a93c dcf5 ab3d edb9 273d ce14 243d
00000130: 7b99 033e 7e36 86bc 42c3 a0bc 3221 3f3c
00000140: afef 10bd 0a8e 3a3e 1163 473d 2d57 2bbc
00000150: d710 b1bd e228 393d 44b8 a63a cfb7 1dbd
00000160: 96fe 28bd 9dca b83d da99 bd3c 576d 96bd
00000170: ee4e 1c3b 476e 9abd 85ed 2a3d 3ad2 d83d
00000180: c34d 933b 7dc5 39bd 13d6 84bc 48a4 153d
00000190: 432e 1c3c 79b1 133d b51a 66bd 0df0 b7ba
000001a0: 55cf b5bd 0dbf 0ebd cae7 5b3d dda9 d83d
000001b0: a615 a03d 01cc b3bb e390 d43c ba22 f9ba
000001c0: 02c2 15bd efee 00be 3366 a3bd 11eb 193d
000001d0: 43e9 a23c d1a1 3bbd 8c14 4cbd 0d4a 0e3e
000001e0: 9835 913d bd9d 503d 1536 2ebd ed51 90bd
-0.059003547 0.015055502 -0.04372837 0.016652599 -0.053927522 -0.058424767 -0.021681247 0.04433416
0.043009944 0.005508075 -0.030571418 0.027675414 0.032004964 -0.04726225 0.007068488 -0.031788524
0.033088822 0.008613603 -0.059592027 -0.12039273 0.010088821 0.011199024 -0.03564898 0.07458644
0.112219825 0.047461808 -0.078208365 0.0830892 0.02662501 -0.05756469 -0.0007978389 -0.050130308
-0.021125494 0.009468434 -0.024162317 -6.560204e-05 0.043841805 -0.0664039 -0.07077962 -0.061511114
-0.040608186 -0.08117686 -0.028669111 0.02210007 -0.053562365 -0.091005825 0.008141012 0.0019947542
0.10463114 0.030420087 -0.10198358 -0.034353174 -0.01678446 -0.023341725 -0.09847799 -0.05132916
0.049045134 -0.09638358 -0.09085562 -0.07497675 0.001813707 0.0229715 0.11639443 0.010051299
-0.08642372 0.016216818 -0.08837363 0.036948454 -0.08555223 -0.03493638 0.0029388152 -0.0749749
0.020695476 0.08396503 0.040948797 0.040058903 0.12851517 -0.016383406 -0.019624356 0.011665629
-0.03538483 0.18218246 0.04867846 -0.010457796 -0.0864579 0.045205005 0.001271971 -0.03850537
-0.041258417 0.090230204 0.023144651 -0.07345074 0.0023850757 -0.07540565 0.041730423 0.105869725
0.004495354 -0.045354355 -0.01621536 0.036533624 0.009532514 0.036057923 -0.056177814 -0.0014033333
-0.08877436 -0.03485017 0.05368785 0.10579274 0.07816629 -0.0054869656 0.025947994 -0.0019007542
-0.036561973 -0.12591146 -0.07978477 0.037577692 0.019886618 -0.045808617 -0.049824283 0.13895436
0.070903 0.05093168 -0.042532045 -0.07046876

fc.weight f4 [2, 496]
00000000: ccc2 e8bc 5ac1 493c 71c8 fabc 9ee5 c33c
00000010: 93f6 e93d 8e77 143d 6313 99bd 04b5 863d
00000020: f631 203e 5b72 ba3c 1d1c fcbb ed7c e23d
00000030: f4d9 333e ae6f 803d 3d9e a9bb 6f59 493c
00000040: cb89 003d 3068 d53d c605 bd3d e725 0dbe
00000050: 7af9 0a3d dc92 c9bc d354 113d 5707 4dbb
00000060: 3f5c 193e 1ced a03d ed66 e7bb 8e6d eb3c
00000070: 3ed0 8f3c a186 1bbd 2fa5 383e 4882 b9bd
00000080: c37b b43d 0073 2c3c cbc2 aa3c 4a1f e13d
00000090: 74b5 073e c494 1dbe 5d42 293e a283 d03a
000000a0: 562b a13d 43dc 3dbe 48fe 09bc d886 9a3d
000000b0: be96 a23d 518f babd 1245 ae3c a55d 703e
000000c0: ada2 2c3e 00f3 bfbd a211 0ebd 2f08 113e
000000d0: f564 d8bd 7615 473d eef5 debd a689 a6bc
000000e0: f975 94bc c3f6 fa3d 49ba 293e 2770 c2bd
000000f0: 24a4 41bd 31be 153d 6173 dcbd 3050 2cbe
00000100: cb02 2bbd 8488 533d 9a15 f4bc 23b0 003e
00000110: 8537 bc3d 5637 e6bc 01a9 92bd 150f 433d
00000120: fd03 113d 056e 24bd 285e 003e 47b7 abbd
00000130: 1cef 283e ab1e ee3d 5e36 863d 7f90 dbbd
00000140: c1d8 4a3d ecd5 5c3c 0b45 013d aa23 8a3d
00000150: 3490 263e b427 59be 7c57 a93d 5a16 89bd
00000160: 96b9 11be fbb4 903d 7be1 393e 646b 393c
00000170: 7a6c 093c b582 633d fb0e 813e 6623 b6bd
00000180: ae31 10bd dc38 1ebe 375a 753e f83e 2f3d
00000190: f0b7 8bbc c2ad 8a3c 2804 083d a31e 593d
000001a0: 1f56 dcbc 9fdc 373d 2d05 863a 62fa fd3c
000001b0: 9bcc 453d cf1e aabd cec7 0c3e abb5 1cbd
000001c0: f096 17bd 92eb 653d ed28 103e 2b64 063d
000001d0: a776 37bd 77e9 04bc fc83 e7bb 62c1 adbc
000001e0: c3ca b13c 5001 b43b 152e eb3c 0c8d 273d
000001f0: 2001 c2bc ef80 123e 17fd e7bd a4d0 093e
00000200: 9327 433e 3e77 77bd fed7 893d b936 7d3d
00000210: 7644 343c b399 353d 668f 823d a01b 7e3d
00000220: c3b9 f63d 7843 54be 17c9 853d c84f 62bd
00000230: a30c 073d 5ca6 c63c ab75 47bd a7ba 8c3d
00000240: cd6a 8b3d 5e3d be3d 67f0 a83b 8fef 923c
00000250: e859 1c3d 0f31 bebb 2cb7 923d a8a5 173d
00000260: a58b 043c c01d 57bd 78a4 34bd dd6f 6e3c
00000270: c432 733c 0897 f1bd ed12 e13c b783 c4bd
00000280: e7a8 3d3e 2338 4ebd 6e89 c8bd 623e ca3d
00000290: f4df 9dbd 5a99 84bd 15cc 863e 0d22 023e
000002a0: c59f 183b 4ef0 61bc 0451 5b3c b28a e7bc
000002b0: 293e 0ebd 3083 fbbc a6de eb3d 684e 863d
000002c0: db93 c1bc 0ca8 393c bc1c 13be 5e4c e93c
000002d0: 18cf 92bc 9919 863b 57e5 04bc 0480 933c
000002e0: 24d7 873d 635d d03d 8965 57bc 77d2 8c3c
000002f0: 89b9 f93d c06c 96bd 6a9b 3d3d 6b5d 153d
00000300: 1872 cd3d 3563 5f3d 2546 e23d 6254 54be
00000310: a86f 9e3b 1a9d 593a d2ef b8bc 889e d23c
00000320: a64b cd3d 6a88 1fbe 5bc9 193e c187 423d
00000330: 694c ffbd 4e2e 163e 944d 953d bb62 b23d
00000340: 512c 73bd 28d6 4ebd 71a7 e23d f23d e73d
00000350: 275a 1dbd ec7e 66bd 1e50 20be 1394 e33c
00000360: dd14 edbd 4364 653d a18d 4b3e 65f0 103e
00000370: 4c0a ddbd 183b ec3c 6b61 a0bd 90e9 b1bc
00000380: ad02 fcbb 9448 363c 66b4 cabc 0364 9d3c
00000390: 1ee4 623d bca7 8f3c 8362 213e c8ea 71bd
000003a0: 3517 e53d bf00 a93d b092 eb3d 55b9 6abd
000003b0: 8377 833e 87c6 35bd 85e8 8abd b917 0e3e
000003c0: bfd5 ffbc c2bd a33b 2510 dc3d b6c5 e83d
000003d0: 4d4d 58bd 0b60 153d 1f3f 0f3e 4e7b 0bbd
000003e0: b9d2 92bb d0f2 93bc a7c0 153e 81d7 70bd
000003f0: 7ddc 583d 0273 63bd 371f a83d c925 f13c
-0.028413199 0.012314165 -0.030613156 0.023913201 0.114239834 0.03624683 -0.07474401 0.06577495
0.15644059 0.022759607 -0.007693781 0.11058984 0.17563611 0.06271301 -0.005176334 0.012289389
0.03138141 0.10420263 0.09229617 -0.1378399 0.033929326 -0.02460616 0.035481285 -0.0031284892
0.14976595 0.07857725 -0.0070618303 0.028738763 0.017555352 -0.03797019 0.18031763 -0.09058052
0.08812668 0.010525465 0.020844838 0.10992296 0.13252813 -0.15388781 0.16529222 0.001590837
0.07869594 -0.18541054 -0.008422442 0.07545251 0.07938908 -0.09109367 0.02127317 0.23473223
0.16858931 -0.093725204 -0.034684785 0.14163278 -0.10566131 0.04860445 -0.10886751 -0.020329308
-0.01812266 0.12254097 0.16574968 -0.094940476 -0.047275677 0.036558334 -0.10764194 -0.16827464
-0.04175071 0.051643863 -0.029795457 0.12567191 0.09190277 -0.028102558 -0.07161141 0.047621805
0.035404194 -0.040143985 0.12535918 -0.08384567 0.16497463 0.11626943 0.065533385 -0.1072092
0.04952312 0.013478737 0.031559985 0.06745084 0.16265947 -0.21206552 0.082686394 -0.06693716
-0.14230952 0.07065769 0.1815242 0.011317108 0.008387679 0.055544574 0.25206742 -0.088934705
-0.03520363 -0.15451378 0.23960195 0.04278466 -0.017055482 0.016928557 0.03320709 0.053007733
-0.026896534 0.044888135 0.0010224931 0.03100318 0.04829083 -0.083066575 0.13748094 -0.03825919
-0.03700918 0.05613286 0.14078112 0.03281037 -0.04479089 -0.008112303 -0.0070652943 -0.021210376
0.02170313 0.0054933205 0.028708497 0.040905997 -0.023682177 0.14306997 -0.1132757 0.13458496
0.19058065 -0.060416453 0.0673065 0.061819766 0.0110026505 0.044336032 0.06375007 0.062038064
0.1204715 -0.20728862 0.065324955 -0.055251867 0.032971036 0.024249248 -0.0486962 0.068715386
0.0680748 0.092890486 0.0051556113 0.017936496 0.03817168 -0.005804188 0.071638435 0.037023216
0.0080899345 -0.052518606 -0.044102162 0.0145530375 0.014843646 -0.11796385 0.027474845 -0.09595435
0.18521462 -0.050346505 -0.09791838 0.0987518 -0.07708731 -0.06474562 0.26327577 0.12708302
0.002328859 -0.013790203 0.013386015 -0.028264377 -0.03472725 -0.030702204 0.11517076 0.065579236
-0.023630073 0.011331569 -0.1436643 0.028478798 -0.017921016 0.004092407 -0.0081113195 0.018005379
0.06632832 0.10174062 -0.013146766 0.017190201 0.12193591 -0.07344961 0.046290793 0.036466043
0.10031527 0.05453797 0.11048535 -0.20735314 0.004835088 0.0008301303 -0.022575293 0.02571036
0.100241944 -0.15579382 0.15018217 0.047492746 -0.12465746 0.14666101 0.072901875 0.087102376
-0.059368435 -0.050497204 0.11067093 0.11291112 -0.038416054 -0.056273386 -0.15655562 0.027780568
-0.11576245 0.05600382 0.19878246 0.14154203 -0.107929796 0.028836772 -0.07831081 -0.021717817
-0.0076907487 0.011125702 -0.024744224 0.019212728 0.05539333 0.017536037 0.15760235 -0.059061795
0.11186067 0.082520954 0.11502588 -0.057305653 0.25677118 -0.044378784 -0.06782631 0.13876237
-0.031229852 0.004996986 0.10745267 0.11365835 -0.052808095 0.036468547 0.13988923 -0.03405314
-0.0044806865 -0.018060118 0.14624272 -0.05879927 0.05294465 -0.055529602 0.08209079 0.029436963

fc.bias f4 [2]
00000000: 9bea 36bd 37f5 2aba
-0.04465733 -0.0006521525
